gluonts_univariate_forecasting/lightning_logs/version_1/checkpoints/epoch=9-step=500.ckpt (torch, 330179 bytes, 33 tensors)

model.param_proj.proj.0.weight f4 [1, 40]
00000000: 25d8 b1be 35ac c0be 8627 7d3e 26cc 9f3d
00000010: dba3 433e df49 933d 87ec 10be 0145 b7be
00000020: dda8 6e3d 8af9 ac3d b13f 36be 5f02 db3d
00000030: e3fa bbbe f0ad 723e 834c 8d3e 29bb 3d3e
00000040: 610a 033d 6a5a 13bd 4924 a13e b071 8a3c
00000050: 793c 263a 1760 9f3e 95c0 99be a8d7 61be
00000060: db80 783c b330 2e3e 9d03 9fbe 8803 02bd
00000070: eedd 2dbd e976 02bd 753f 723c e411 a03d
00000080: 0293 ddbc 66dc 8cbe dabc 2b3c 9a05 843c
00000090: 3f9b a43e 94fe 46bc 1f33 9a3c db3b 163d
-0.34735218 -0.37631384 0.24722108 0.0780261 0.19105475 0.07191824 -0.14152728 -0.35794833
0.05826651 0.08446033 -0.17797734 0.106938116 -0.3671485 0.23699164 0.27597436 0.18528427
0.03199232 -0.035974897 0.31472996 0.016899914 0.00063414086 0.31127998 -0.3002974 -0.22054923
0.01516744 0.17010765 -0.31057444 -0.03174165 -0.042447977 -0.031851683 0.014785637 0.07815912
-0.027047638 -0.275119 0.010482037 0.016115952 0.32149693 -0.012145657 0.018823205 0.036678176

model.param_proj.proj.1.weight f4 [1, 40]
00000000: 76cb c23d daab 5cbd 89bd 5dbe 002e b7bd
00000010: bc21 27be 450e dc3d 0fd5 2d3e 68f9 3f3e
00000020: 668a 1d3e ac23 c1bc f6da 0b3e 9e6f 8cbd
00000030: eb0a 0f3e 337e 36be ab3b c1bd c634 bebd
00000040: 9885 44be 1a99 203e c1a6 37be 944b e5bd
00000050: e2bd 05be 6d1f 8bbd 0226 ca3c 6951 ea3d
00000060: 30fe 47be 1534 66bd 25e1 563e 16b7 02be
00000070: 5f37 493e 306b e8bd cb3d 31be 3bc2 3cbe
00000080: 181c 8f3b b5e0 dc3d b4d8 46be 0b6c 6dbe
00000090: f6f5 88bd 2f59 263e 51dc 26be 8a8d 043e
0.09511463 -0.053874828 -0.21654333 -0.08944321 -0.16321462 0.10744909 0.16975807 0.18747485
0.15384826 -0.02357658 0.13657746 -0.06857227 0.13969009 -0.17821579 -0.09435209 -0.092874095
-0.19191587 0.15683404 -0.17934705 -0.11196056 -0.13060716 -0.06793103 0.024676327 0.11441309
-0.19530559 -0.056202013 0.20984323 -0.12765154 0.19650029 -0.113485694 -0.17308728 -0.18433468
0.0043673627 0.10785047 -0.19418603 -0.23185746 -0.06687538 0.16244958 -0.16294982 0.12944618

model.param_proj.proj.2.weight f4 [1, 40]
00000000: 466a 043e e3d3 6d3e 7f81 063e b416 89be
00000010: e5ed 183e 37b4 47be 94ff 013e 2bd8 9e3e
00000020: 9716 8ebd a5af 8cbe 8e78 05bd 5a8c f03d
00000030: bfab 843e 4210 533e 2eb6 d5bd 18af 7fbd
00000040: 7464 593e 8f42 d6bd 62cc 55be 83f3 30be
00000050: 22b7 56be 8985 3bbe 2f41 2f3e b647 bc3d
00000060: c2de 2c3e f8c0 933c 0d88 9c3e 8039 b0bd
00000070: 4ede b73d 25d8 913d 6372 ba3d 8240 263e
00000080: 7ca8 2c3e cedb 853e 7f41 0ebd 8bd6 f33c
00000090: b2e2 57be 40b3 15be dfd2 4abe 7646 1bbe
0.12931165 0.2322536 0.13135336 -0.26775134 0.149345 -0.1950234 0.12695152 0.31024298
-0.069379024 -0.27477756 -0.032585673 0.1174552 0.25912282 0.2061167 -0.10435139 -0.06242284
0.21229726 -0.10461914 -0.20878747 -0.17280392 -0.20968297 -0.18312658 0.1711471 0.09193365
0.1688185 0.01803635 0.30572549 -0.08604717 0.08977948 0.071213044 0.09103849 0.16235545
0.16861147 0.2614426 -0.03473043 0.029765388 -0.21082571 -0.1461916 -0.19807003 -0.15163597

model.rnn.weight_ih_l0 f4 [160, 37]
00000000: 7861 0fbe a3ab 80bd 798f 2cbd 5804 00be
00000010: 3082 ac3d b685 ba3d 4080 4b3e eae5 e2bb
00000020: 293a e53b 9cb2 c33d 11c1 c53d 7057 6dbd
00000030: eb23 95bc 28fd 493e d659 103e 3ef0 493e
00000040: c7fc 8e3d f905 c13d 6bc6 033d 49ce 2d3d
00000050: b54d 83bd eb19 d33c 3c8c 843c b0cf aebb
00000060: 77e0 03bd 9408 743d 9a1b 8a3d 7f7d 253d
00000070: 21b4 163c 1357 f93b 5fc3 63bd c768 b73a
00000080: de76 363e 5416 7d3d 2734 1a3d 7dfe eabd
00000090: 2463 bf3d 80a7 1ebe 5c3a 21be 9b23 3ebe
000000a0: 93df 043c 7bd9 eebc 818b 96bd f36b 3e3d
000000b0: 1717 aabd 6cdc a83d b778 153e 67d1 c73d
000000c0: 4d2b fd3d 298c 353e 80e5 063e af17 e83d
000000d0: 8a68 0c3e 9f59 973d 203c 6fbd 744b 35bd
000000e0: fbdd 2cbe 06ac 4abd af00 e33b 3bf8 ce3c
000000f0: 50d3 a5bd 80c6 30bd f7df b83d 1717 b9bc
00000100: 17ff 5fbd e7b3 3f3c 87a7 243d d41d b1bc
00000110: 6cdb a73d 9265 0d3b 24d2 22bd 4f01 40be
00000120: 4ba4 8dbe ace4 2c3c 0094 3a3d 1773 573e
00000130: 8e7c 963d c29b aabd 2ad9 1cbe afed 203c
00000140: 5b2f c7bd a64c f03b e17c 013d ab3b a93d
00000150: f5a5 9cbd c502 5bbd 8a55 493d 47b8 ecbd
00000160: 662b b4bd b488 99bd 1d22 123e 0e2d 03be
00000170: c775 35bd 58e2 a2bd cba1 223d 3194 a0bc
00000180: 16dc 28bd 5a04 193d e3b7 2b3c 7e6c 523c
00000190: 4f3b 4cbd cacc 863d dd11 9839 c6a8 51bd
000001a0: 1880 29be 108d d13c b531 b9bd 5ba4 a43d
000001b0: 1d82 19bd 9da0 873b f94b 5b3e 8fa7 2bbd
000001c0: 6e40 25be eb3f 36be 9cf2 6fbd bc15 e0bd
000001d0: ba39 5a3d 0b82 46bd 5006 3b3e f203 323e
000001e0: 4696 dabd 6837 87bd 2b35 2c3d 682d 16be
000001f0: c5d7 fcbd 5722 44bd ba11 54bd 3a70 fd3c
00000200: b8e6 57bd e63e a63d dafa 8cbd 6da2 bcbd
00000210: dfff a03d e748 293d 8bc6 bf3d 5163 aa3d
00000220: ec01 8ebd 4cda 8b3d 70b8 41bc aaec ba3a
00000230: 2816 473c 42fc c23c 6360 cb3d 3d74 adbd
00000240: aebc 2cbe e075 9ebd a918 57be 75b3 46bc
00000250: 5ce5 b5bd 0764 cdbd 7c01 cdbd 3a94 b93d
00000260: ebfe 123d b613 98bc f50f 8dbd 713b c83d
00000270: b4eb 2b3e 4baf ae3c 1394 833d c35a de3d
00000280: c136 debd 6b4f 4b3d 4e44 92bc a36e 11be
00000290: e581 99bc 0ca9 3dbd 1726 c7bd 28fd e9bc
000002a0: be82 dabd 4714 a33d 845c 773d 8386 2ebd
000002b0: 8848 77bd 2868 b73c 18bd 85bd fd21 4d3c
000002c0: 0650 e7bc 9aaf 053b 93f8 223c 2a4d 953d
000002d0: a87d 803e 3503 55be 6a04 3f3d cce9 79be
000002e0: 4f31 a0bd 4367 b03d 8830 373e 8e62 fa3d
000002f0: a8c9 103e 3ac3 a8bd 2476 5b3d 9d00 d83c
00000300: e464 19be 29ec ebbd 05ed a9bd 891a 10bc
00000310: 8caf 12be 3843 7c3d 47bb 1bbd fea3 d5bc
00000320: 13d4 aabd c88a 93bd 3093 c53d a5f5 343e
00000330: 4599 00bc 4880 07be 457d 6f3d 4613 75bd
00000340: b172 a63d 1b07 7839 7974 acbd 78f4 703d
00000350: 9441 7ebd 3a84 8e3d 086a 213d af54 f0bd
00000360: a31e 9a3c 0583 7bbe d8b4 333e 2bf3 3b3e
00000370: ff17 8ebe b2ae 603e 4f73 fd3d 4ff4 9bbd
00000380: 6850 a6bd 38da 95bd bd92 c73b 1814 41be
00000390: 3b2d 003e 6aeb be3c 6a5f 263e eb63 c53d
000003a0: 3fea 0c3e 411c ff3d fb39 953d acb7 04bd
000003b0: aee9 c9bd c2f0 1a3d 4e2d ee3d ca70 84bd
000003c0: 6c16 9fbd 6b4c 07be 520c 113e df3a cebd
000003d0: 3643 0cbb 6c83 8e3d 9d7f 0e3d a00f 87bc
000003e0: e058 b43d 7d98 c43d defb 9b3c 56f6 c2bd
000003f0: da78 44bd fa23 b2bc 129b f93d 7f7c ae3d
-0.14002025 -0.06282737 -0.042129014 -0.12501657 0.08423269 0.091075346 0.19873142 -0.0069243805
0.0069954586 0.095555514 0.09655965 -0.057944715 -0.018205604 0.19725478 0.1409677 0.19720551
0.06981807 0.09424967 0.032171648 0.042433057 -0.06411306 0.025769195 0.01618015 -0.005334817
-0.03219649 0.059578493 0.06743546 0.040402886 0.0091982195 0.007609257 -0.055606242 0.0013993018
0.17818782 0.061788872 0.037647393 -0.11474321 0.093450814 -0.15493584 -0.15744919 -0.1856827
0.008109945 -0.029156437 -0.07350827 0.046489667 -0.08305185 0.08245167 0.1459683 0.09756737
0.123617746 0.17729248 0.13173485 0.11332642 0.13711753 0.07390141 -0.05840695 -0.04426141
-0.16881554 -0.04948046 0.0069275717 0.02526485 -0.08096945 -0.043158054 0.09027093 -0.022594018
-0.054686632 0.011700607 0.04019883 -0.021620668 0.08196148 0.0021575433 -0.039751187 -0.18750499
-0.27664408 0.0105525665 0.0455513 0.21039997 0.07347976 -0.0833049 -0.15317217 0.009822293
-0.09725829 0.007333356 0.031613234 0.08263334 -0.07648841 -0.053469438 0.049153842 -0.115585856
-0.0879734 -0.07496777 0.14270826 -0.12810156 -0.044301774 -0.07953328 0.03970508 -0.019601913
-0.041225515 0.037357666 0.010480854 0.012843249 -0.04986125 0.06582029 0.00029005008 -0.051186346
-0.1655277 0.02557996 -0.09042684 0.08039161 -0.0374776 0.0041390196 0.214157 -0.041907843
-0.16137859 -0.1779782 -0.05858098 -0.109416455 0.05327771 -0.048463862 0.18264127 0.17384318
-0.10673194 -0.06602365 0.042042892 -0.14665759 -0.12345842 -0.04788431 -0.051774718 0.030937303
-0.052710265 0.08117466 -0.06883784 -0.09210668 0.078613035 0.04132929 0.09364041 0.08319724
-0.0693396 0.06828746 -0.0118237585 0.0014261205 0.012151279 0.023801927 0.09930494 -0.08469436
-0.1686885 -0.077373266 -0.21005501 -0.012127747 -0.088816375 -0.10028844 -0.10010049 0.09061475
0.03588764 -0.018564086 -0.06887809 0.097769625 0.16789132 0.02132382 0.06424727 0.10857155
-0.10850287 0.049636286 -0.017854836 -0.14202361 -0.018738696 -0.046303794 -0.09724062 -0.028563097
-0.10669468 0.07962852 0.060390964 -0.04260875 -0.060371906 0.022388533 -0.065302074 0.0125203105
-0.0282364 0.0020398856 0.00994696 0.072901085 0.25095868 -0.20802005 0.04663507 -0.24405593
-0.07821905 0.086134456 0.17889607 0.12225829 0.14139426 -0.082403615 0.053579465 0.02636748
-0.14979893 -0.11519653 -0.08297161 -0.008795389 -0.14324778 0.061587542 -0.0380204 -0.026079174
-0.08341231 -0.07204205 0.096472144 0.17671831 -0.007849042 -0.13232529 0.058469076 -0.059832834
0.081273444 0.0002365377 -0.08420653 0.058826894 -0.06207426 0.06958814 0.03940776 -0.11734902
0.018813437 -0.24561699 0.17549455 0.1835448 -0.27752683 0.21941641 0.12375509 -0.076149575
-0.08120805 -0.073170125 0.0060904906 -0.18855321 0.12517254 0.023305614 0.16247335 0.096381985
0.13761233 0.12456561 0.072864495 -0.032401726 -0.09859024 0.03782726 0.11629735 -0.06466825
-0.077679485 -0.13212745 0.14164856 -0.100698225 -0.0021402366 0.069586605 0.03478967 -0.016486943
0.08806014 0.09599397 0.019040998 -0.09519641 -0.047966816 -0.02174567 0.121877804 0.085198395

model.rnn.weight_hh_l0 f4 [160, 40]
00000000: c326 00be 7635 053e cada 74bc a26f 9d3d
00000010: deee 063e 56f2 92bc 8e8b b23c d6dc 1abd
00000020: afd9 bb3d bd6c 29be 12ff d9bd 150a 1d3e
00000030: 4656 1bbd 898f cf3b e3bb cfbd 54f1 ae3c
00000040: 3605 113e 5985 0cbe ce8c 6bbb afd2 6ebd
00000050: 175c e6bb 4194 9a3e f31c 8f3d 383d d43d
00000060: 552b 503d 13f6 4bbd 61dc 2fbe 8c3f abbd
00000070: 596a 1e3c e676 273d 5892 393e f627 ac3d
00000080: 8b62 333e 6e69 b1bd 9e64 f13c 4b43 4dbd
00000090: 4ceb e5bd 6af2 d2bd f592 9abd 8419 633e
000000a0: 8f08 66be 0f43 53be b5cf 4abe e557 74be
000000b0: 16b2 98bd 4bea 16bd 8054 d53d 0f1d dfbd
000000c0: d43d 88bd d576 11be b224 e43b 91e7 32be
000000d0: 8c7d 85bd 34dc 2abe c897 bb3c 3b73 06be
000000e0: b11a 523d 923c c1bd 9b68 c63c a9cb 57be
000000f0: e901 db3c d687 153e f69c 16bd dc58 303e
00000100: 45cf 523d fb52 123d 43c7 1e3e 534e 48be
00000110: 5b7a 33bb 3ca5 82bd fb74 cabc fc45 e5bc
00000120: 644f 203e 4ae8 013e 5f6c e5bd 6a6d 4bbd
00000130: b43d 15be f417 0fbd 033b 613d a261 5fbe
00000140: 60b2 313d ae17 363e 1004 fe3d 6b3c 53be
00000150: a84c d5bb 30ce 173d 14e8 f53d b70e 063e
00000160: 039c 46be 30da 2fbd 4acc 2cbe c36a b33c
00000170: 875c 11bd c960 96bd 1485 3dbd f0df 07be
00000180: ecde 193d a2de 44be 57fa 20be ff3c 853d
00000190: fbe0 0e3e 5ba1 66bd 6f58 853d e046 113e
000001a0: cc27 46be a618 443d 2d1f d23d 4a30 013c
000001b0: ad19 c2bd a89f 2d3d f07a cbbd 3b54 b03d
000001c0: 70e8 543d d13d 083e e1f9 16be e92b 95bd
000001d0: 6763 96bd e707 a3bc 0a4e 543e 12a8 30be
000001e0: 5259 c23c 22ab 1e3d a7dc 17be e873 cd3d
000001f0: a5a9 24be 4b99 863c a6bd b6bb 9603 183e
00000200: 4985 f53c 6172 553d b922 fe3d bbf0 0abd
00000210: de00 d33d ba93 48be 106f 3e3d 245e b63d
00000220: 643b 393d dea9 2abe 5f67 53be 96f2 683e
00000230: 5ad6 bcbd 3c88 8ebb 67c1 e4bd 4108 ba3d
00000240: 7596 56be 0340 c1bc e14c fd3d 3dcd c9bd
00000250: 811f 233e 3e0a aeba c0c4 2e3e 9c7c e43d
00000260: 3a95 adbc 56b4 ffbc 851d 053a a648 b9bb
00000270: 419e 243d f346 65be fb0d 9c3d 3a4b 7dbd
00000280: d396 86bd 82ba 61bd 1e50 213d 03de c1bb
00000290: 0d2f 04be c849 1b3d 58f9 66be 03ab 573d
000002a0: e536 40be 5e28 743c 3902 c93d cabd 103e
000002b0: 48a8 32bd 1808 1d3e 5db0 ea3b 65cb 2f3d
000002c0: e8f2 eabd 2447 3cbe 5376 da3d b059 29be
000002d0: e3f8 8f3d 9d2c 74bd a502 f73d 8be9 f03d
000002e0: 97c1 51be 414f c83d 39d6 0ebe 8009 903d
000002f0: 7d01 18be d01d 013e 850e e1bd 2dc6 3cbe
00000300: a115 89bd 09cc d03d 2f31 f13d 00bf f73d
00000310: 5b54 bcbd 5f99 fe3d 2505 a9bd 1b32 eabd
00000320: 004d 43be 5b4c 933d 74d2 3a3b 1f57 08be
00000330: 1e9d 2f3c b964 e4bc 9a6f 323e 5ceb 0cbe
00000340: 8b61 48bd 71fa 01bb d762 dabd cf20 d63d
00000350: cf7c ee3d 9b8e e2bd 362b f23d 593f e93c
00000360: a72c cdbd e720 17be 6e8a 04be 7d97 203e
00000370: c59d 3b3a 3a33 2cbe 484a ffbd 7018 0b3e
00000380: f80e 9c3d f3f1 1cbd 5b65 bbbc ffd9 da3d
00000390: a032 c7bd 64ea e33d 73f6 423d 0b4a 8cbd
000003a0: 75dd b1bd ee06 20be f265 0c3e c526 b73c
000003b0: 0dac b53d 690f 1dbe d6bb bb3d e36d b2bc
000003c0: f47b 8fbe f8a5 a4bd d3cc 5a3d b9dc c2bc
000003d0: 91b0 e7bd 1c13 b1bd 767e 43be 1e71 30be
000003e0: 9d59 b8bd 91bd e83d 6534 a3bd 0639 49bd
000003f0: 1b1f 0b3c 0663 f9bc 27cc 0bbe 7597 003e
-0.12514786 0.13008675 -0.0149447415 0.07687308 0.13177058 -0.01793782 0.02179506 -0.03780826
0.09172379 -0.16545387 -0.10644354 0.15335877 -0.037924074 0.0063342494 -0.101432584 0.021355309
0.14162144 -0.13722743 -0.003594208 -0.058306392 -0.007030021 0.30191234 0.069879435 0.10363239
0.050822575 -0.04979522 -0.17173912 -0.0836173 0.00966891 0.040884875 0.18122232 0.084060594
0.1751806 -0.08662687 0.029466923 -0.050113004 -0.1122652 -0.10300143 -0.07547561 0.22177702
-0.22464202 -0.2063105 -0.19805796 -0.23861654 -0.07455842 -0.036844533 0.10416508 -0.10894214
-0.06652418 -0.14205487 0.0069623822 -0.17471148 -0.06518087 -0.16685563 0.022899523 -0.13129894
0.051294986 -0.09435381 0.024219802 -0.21073784 0.02673431 0.14602599 -0.036770783 0.17221397
0.0514672 0.035723668 0.155057 -0.19561128 -0.0027386162 -0.06379172 -0.024713984 -0.027987473
0.15655285 0.12686267 -0.11202311 -0.049664892 -0.14574319 -0.034934953 0.05498792 -0.21814588
0.043383002 0.1778247 0.124031186 -0.20628516 -0.0065093823 0.03706187 0.12007156 0.13091551
-0.19395451 -0.04293269 -0.16874805 0.021901494 -0.03548863 -0.07342679 -0.04626949 -0.13269019
0.03756611 -0.19225553 -0.15720497 0.06505775 0.1395301 -0.056306224 0.06511008 0.14187193
-0.19351119 0.04787507 0.102598526 0.007885048 -0.094775535 0.04238859 -0.09935558 0.08609816
0.051979482 0.13304831 -0.14743759 -0.07283766 -0.07343178 -0.019901229 0.20732895 -0.17251614
0.023724232 0.038737424 -0.14830266 0.10031873 -0.16080339 0.016430518 -0.005576807 0.14845118
0.029970782 0.052111033 0.124089666 -0.033920985 0.103029 -0.19587603 0.046492636 0.08904675
0.045222655 -0.16666362 -0.20644902 0.22748789 -0.09220572 -0.0043497365 -0.11169701 0.090836056
-0.20955832 -0.023590093 0.12368179 -0.09853599 0.15929987 -0.0013278199 0.17067242 0.1115658
-0.02118932 -0.03121392 0.0005077946 -0.0056544123 0.040189985 -0.22390346 0.07619854 -0.06183932
-0.06571736 -0.05510951 0.039383046 -0.0059163584 -0.12908573 0.03791216 -0.22556055 0.052653324
-0.1877094 0.014902202 0.09814877 0.14134899 -0.043617517 0.15335119 0.0071621374 0.04291858
-0.11472112 -0.18386513 0.106671 -0.1653812 0.07029893 -0.05961286 0.12061051 0.11763295
-0.20484005 0.097807415 -0.13948907 0.07033062 -0.14844318 0.12609029 -0.109890975 -0.18434973
-0.066935785 0.101951666 0.11776959 0.12096977 -0.09195777 0.12431597 -0.08252934 -0.11435338
-0.19072342 0.07192298 0.0028506787 -0.13314484 0.010718612 -0.02788006 0.17425385 -0.13761657
-0.04892115 -0.0019833113 -0.106633835 0.104554765 0.11644899 -0.11062356 0.11824648 0.02847259
-0.100182824 -0.14758645 -0.12943432 0.15682788 0.00071569934 -0.16816416 -0.1246534 0.13583541
0.076200426 -0.03831668 -0.022875478 0.10686111 -0.09726453 0.11128691 0.047598314 -0.0685006
-0.08684818 -0.15627643 0.13710764 0.022357354 0.08870707 -0.1533791 0.09166686 -0.021780914
-0.28024256 -0.080394685 0.05341799 -0.02378689 -0.11312974 -0.08646223 -0.1909121 -0.17230651
-0.090014674 0.11364282 -0.07968978 -0.049126647 0.008491303 -0.030442726 -0.13652097 0.12557776

model.rnn.bias_ih_l0 f4 [160]
00000000: ccf2 cf3d 54f0 e73d 5cf0 e93c 752a 603e
00000010: e56f a3bd a18c fa3d efa4 303e 254a e83d
00000020: afce 013e 72f7 bdbd a31d 2d3c a5d9 1b3c
00000030: 6322 f1bc 09f8 97bc be76 c03a 1b0e 613e
00000040: cd49 133e 1c85 a93d 3c0d c43d 51f7 ccbd
00000050: 3afa 3d3e 35b3 0a3e f2e4 5b3e 60c6 73ba
00000060: bca9 7a3e a8d4 b03d 521a 3a3e 90ed 233e
00000070: 306b 49bd acf3 29bd 7e1d ec3d b563 f03d
00000080: 30f0 903e 4f45 0c3e c74f 693c 5e71 5abd
00000090: 6f4a b0bd 23df 8dbb 0e4e d4bd d228 103e
000000a0: 2a81 863d 20c4 d53d 5b04 bebd 5a8a 2dbe
000000b0: ab70 7c3c fae8 53bc 3810 f7bd d0c2 06be
000000c0: 4b9e 06be f584 863d 1668 2a3e a213 abbd
000000d0: 59f8 47be 299a 473d cf6b 2cbe a425 82bd
000000e0: 2ebb 40be a1e8 fd3d 2d66 1abe 8ffd 6dbd
000000f0: 0a68 25bd 5242 5e3d dfd3 c73c df67 a23d
00000100: 8957 ab3d 3dc5 503e 8ca9 293d f4e5 9c3d
00000110: a758 cdbd d4d2 07be f31d dfbd 04b9 463d
00000120: ee4b d9bd 64bd 98bc 5466 52bb eafd 25be
00000130: 4eea 713c bbb2 fdbd d5bb 76bd c541 55be
00000140: 93ff 58be 3ce9 d13d d383 62bd 48c8 853b
00000150: baf7 63bb 39aa 38be bc5f 34bd 8fd0 023c
00000160: 64f8 e4bd 5585 f13d ea3e 73bd 7afd 0ebe
00000170: 5f4e 2cbe 591a 323d 1dcd e03d e3e4 39be
00000180: 8cdf 83bd e81e 76bd 43a0 f1bc 047d 23be
00000190: 642f f8bc 353c 3fbe 2817 263d 2472 223d
000001a0: 91e3 c53d aff9 973c 828e 3e3e aee2 813d
000001b0: e60f 8ebb 55c7 d4bd ef7a 133e 918e b3bc
000001c0: 8f09 6d3e 1a35 b63d e6fb 2cbd 21fb d23d
000001d0: 98d9 acbc 8ad3 c9bd 22aa 0bbe 372c d33c
000001e0: 3884 61bc ea0b 963d 82f6 fc3d 0996 593e
000001f0: 8ffe 103e 50b8 273d 2e7b 1bbc 8c45 c3bd
00000200: fc97 003e 4b39 693d 921a 2f3e 0549 9a3c
00000210: 6623 263d a035 5abc 043e 2fbe 28de 2d3c
00000220: 580e 43bc 4382 333d af44 2b3e 19a4 9abc
00000230: c759 623e 30e9 283e 87f0 793e 8efb 053e
00000240: 47c7 c03d 9ed2 81bc 14c6 183e f23d 213d
00000250: 0bce 9d3d 8c10 00bd 67c4 abbd cc02 643e
00000260: d7e4 593e 1e8c 6a3d b530 80bd e197 b03b
00000270: 6d4f a0bd 29e0 8cbd c969 9d3d e699 ae3d
0.10153732 0.11325136 0.028556995 0.21891196 -0.079803266 0.12233854 0.17250417 0.11342267
0.126765 -0.09275712 0.010566148 0.00951234 -0.029435342 -0.01855089 0.0014683825 0.21978037
0.14383622 0.08277342 0.09572837 -0.10008109 0.18552485 0.13544925 0.21474054 -0.00092992745
0.24478811 0.08634311 0.18174103 0.16008592 -0.049174488 -0.04149215 0.11529063 0.117377676
0.2830825 0.13698314 0.014240212 -0.05333077 -0.08607947 -0.0043295785 -0.1036645 0.14078072
0.06567605 0.104377985 -0.092781745 -0.16947308 0.0154077215 -0.012933964 -0.1206364 -0.13160253
-0.13146321 0.06568328 0.16641268 -0.08353354 -0.19528331 0.048731003 -0.16838 -0.06354836
-0.18821403 0.12397886 -0.1507804 -0.05810314 -0.040382423 0.054262467 0.02439302 0.07929968
0.083663054 0.2038774 0.041421458 0.076610476 -0.10026675 -0.13264018 -0.10894384 0.04851629
-0.106101856 -0.018644996 -0.003210445 -0.16210142 0.014765335 -0.12387606 -0.060237724 -0.2082587
-0.21191244 0.10249564 -0.0553015 0.0040827133 -0.0034785108 -0.18033685 -0.044036612 0.007984295
-0.11180189 0.11793009 -0.05938617 -0.13963881 -0.16826771 0.04348216 0.10976622 -0.1815372
-0.064391226 -0.06008807 -0.029495364 -0.15965658 -0.030296035 -0.18675311 0.040549427 0.039659634
0.096625455 0.018551676 0.1860905 0.06342064 -0.0043353913 -0.10389582 0.14402364 -0.021918567
0.23148178 0.08896847 -0.042232417 0.10301805 -0.02109985 -0.09854801 -0.1363912 0.02577792
-0.013764434 0.07326491 0.12351705 0.2124864 0.14159606 0.04094726 -0.009489818 -0.095347494
0.12557977 0.056939404 0.1709998 0.018833647 0.040561102 -0.013318449 -0.17113501 0.010612048
-0.011905275 0.0438254 0.1672542 -0.018877076 0.2210456 0.16495204 0.2440816 0.13084242
0.09413009 -0.0158475 0.14919311 0.039365716 0.07705315 -0.03126578 -0.0838707 0.22266692
0.21278702 0.057262532 -0.0625929 0.005389199 -0.07827649 -0.06878693 0.076861925 0.085254475

model.rnn.bias_hh_l0 f4 [160]
00000000: 77a8 ab3d 6529 313e 31cd 963d 3711 fe3d
00000010: 41ba bdbd 28f8 bf3d 0a05 6c3e 6c63 3d3b
00000020: aa42 233e 4056 063d 67b7 383e bf1a 293e
00000030: 7ffd 4fbc d497 1fbd 5be9 f83d f92d 663d
00000040: 0a59 34bc 070f adbd 1c7b 01bd 78a4 793d
00000050: 4761 d53d 7a6b 3b3e 0bee 3ebd 3178 0c3e
00000060: 2179 483e fe21 933d 273d b13d 6707 123e
00000070: 2ba9 abbd c8fd b7bd e8d6 0a3d 380d 0a3e
00000080: 6eaf af3d b6ad 1c3e 1ccb 073e 86bd 413e
00000090: b9c2 563e 162f 633e 6f95 6ebd bf3e 0abd
000000a0: 3608 243e 6fb0 e03d 177c e1bd f3a7 d33d
000000b0: f7f3 a7bd 0ea5 a0bc 5283 14be 6a11 74ba
000000c0: 72f6 aa3d fea5 37be c966 263d e279 8f3c
000000d0: 7d29 89bd c855 3fbd a3cf c9bd 0457 573c
000000e0: 4d02 b63d b39b fc3d bb91 983d 0f24 5d3c
000000f0: 7496 a7bd 116d 61bd 7cf5 563d b5e1 00be
00000100: c8d1 263e f6d7 4cbc 95d1 fabd 4b3c 59bd
00000110: 9f69 da3d b3a9 163e c214 c63d 6a2f afba
00000120: 2eaa d03a 98aa d8bd e7cd 31bd 4dbc cf3d
00000130: 2501 4d3d eba6 cebd 392d dabd f4fa b3bd
00000140: 5d35 79be 56fd 06be 38e0 1dbe d968 04be
00000150: c22a bfbc 42ce 143d d70d 063e 12b4 9fbd
00000160: 8358 a8bd 8d38 f2bc 18a0 d2bd a452 b2ba
00000170: 909a c23c dd55 45be 2645 c0bd 8789 87bc
00000180: 11a3 573d 48ec 003d 9dc8 43bd de61 d4bd
00000190: 85e9 743d 3285 333d 9f23 ffbb 8821 89bd
000001a0: f377 ebbd 2997 a5bd b028 923c 46dc 08be
000001b0: 4b2a f43d ff24 4e3e 4e75 97bd 7a91 b3bd
000001c0: 7cf0 9e3c 7cd5 ffbc ab2d 3dbd 70df 353a
000001d0: 9eab f4bd b79c c93c 3358 af3c 310d 00be
000001e0: c8cb 803c 923e b43c 2129 493e 5746 443e
000001f0: f014 b1bd b9b0 ac3d 9a5b 163e 11e4 9abd
00000200: 1b20 903d 2f60 633e f3a3 18bd bfb7 d33d
00000210: cded debc 8d32 683e 8519 9cbc 4084 2f3e
00000220: bcb0 493e 5248 0b3d ca16 f53d 20db cc3d
00000230: 6775 d73d a7ac 673e 1066 8d3d 2f22 07bb
00000240: 2bec e93d 719f d93b e0bf c4bd 3c67 033e
00000250: 0ca3 8c3c b8c9 893d 0a94 65bc 2177 453e
00000260: 7d86 8e3e c9a6 3dbc e9a3 233e 1a97 3abd
00000270: e09f 083c 15b5 133e f959 dabd 252a e43d
0.083817415 0.17300947 0.07363356 0.12405627 -0.09264041 0.09373504 0.23048797 0.0028898371
0.15943399 0.0327971 0.18038712 0.16514109 -0.0126947155 -0.038963154 0.12153884 0.056196187
-0.011007557 -0.08450132 -0.031611547 0.060947865 0.10418945 0.18302718 -0.046613734 0.13717724
0.19577457 0.07184218 0.08654242 0.14260636 -0.083818756 -0.08983952 0.033896357 0.13481605
0.085783824 0.1530064 0.13261074 0.18919954 0.20972718 0.2218593 -0.05824798 -0.033751246
0.16018757 0.10971152 -0.110099964 0.10334768 -0.082008295 -0.019609954 -0.1450322 -0.0009310456
0.08347787 -0.17934415 0.040625367 0.017514173 -0.066973664 -0.046712667 -0.09854057 0.013143305
0.088871576 0.12334385 0.07449671 0.013497367 -0.081829935 -0.055035654 0.052480206 -0.125861
0.16290963 -0.012502661 -0.12247006 -0.053036015 0.10664677 0.14713173 0.09671928 -0.0013365571
0.0015919858 -0.10579413 -0.043409254 0.101433374 0.05004992 -0.10090431 -0.10653157 -0.087881
-0.24336763 -0.13182577 -0.15417564 -0.12930621 -0.023335818 0.036329515 0.13091217 -0.077980176
-0.08220007 -0.029567981 -0.10284442 -0.0013604951 0.023755342 -0.19271035 -0.09388189 -0.01654507
0.052645747 0.031475335 -0.04779874 -0.10370229 0.059793014 0.043828197 -0.007786229 -0.06695849
-0.11497488 -0.08085472 0.017841667 -0.13365278 0.11922129 0.201313 -0.07395421 -0.08767982
0.019401781 -0.031229727 -0.04618613 0.0006937897 -0.11946796 0.02461086 0.021404361 -0.12505032
0.01572217 0.022002492 0.19644596 0.19167458 -0.08646572 0.08432145 0.1468338 -0.075630315
0.07037374 0.2220466 -0.03726573 0.10337781 -0.027213002 0.22675534 -0.019055137 0.17140293
0.19696325 0.034004517 0.11967237 0.10002732 0.105204396 0.22624455 0.069042325 -0.002061974
0.114219986 0.0066413213 -0.0960691 0.1283235 0.01716759 0.06727928 -0.014012346 0.19283725
0.2783698 -0.011575409 0.15980496 -0.045554258 0.008338898 0.14424546 -0.10661692 0.11140851

model.rnn.weight_ih_l1 f4 [160, 40]
00000000: 6a21 9d3d 2ad2 97bd 5108 22bb bfb7 6bbe
00000010: 176e 5dbd 15c6 2ebe fed9 62bd e157 4abd
00000020: 01a5 60be b369 e23d 3e03 103d e8be b83d
00000030: 5224 48bd 0b39 df3b 21d3 48be 6a04 b33d
00000040: 5ed0 38be 029a 29be 3ee9 873d 620d 24be
00000050: 1a22 8ebc bd2d bf3c 9ecb 2bbe 7f2b 9bbd
00000060: 51ef e33c 82af 65bd 82ed 2e3e 2a72 9bbd
00000070: 7b58 d03c 86fc 3c3e bbbd da3c 53bf 88be
00000080: 4e30 8cbd 8229 773c d57d 07be 4aca babd
00000090: 31c9 15be f453 7bbe 7244 a0bc da9e 443e
000000a0: d90e 86bd 4e2e 193e 19bf a3be 0668 58be
000000b0: d923 4ebe 938f dabd 9025 cc3d f4d8 a93d
000000c0: 2dcf 2a3d 10ad e8bd c858 2abe cbf7 68be
000000d0: 3fc7 1dbe 96be 18be 96e3 66be a8fb 49bd
000000e0: ee04 193e 3d22 aabc c51d 1b3e 6245 05be
000000f0: 5919 3d3d deaf 9e3d 9b2c 4cbd 89d3 703e
00000100: 865c 7cbe 293f 2bbd 8b7f 7d3e 6187 a3bd
00000110: 1972 033c 3015 5bbd e976 ee3d ed06 12be
00000120: d3ac 153d e460 7c3c 2302 cfbb fd45 94be
00000130: 7ff5 1abd 4db5 4cbc 936f 643b eff4 a83d
00000140: 538f 843d 451c 47bd 5ad8 35bd 1d5a b5bd
00000150: 86e9 f03d a725 f1bd f12e 85bd a71b 1bbd
00000160: 5a14 8c3d cada ce3d 4d60 3fbe 9dc2 abbd
00000170: 30f8 863d 6659 0bbe 60e8 dcbd 36e0 d1bd
00000180: 9174 a13d e7c5 0abe 8c3a 23be 3e71 893d
00000190: cdad 05bd 5348 a53d c22f e9bd 95fb f2bc
000001a0: ce58 25bd 27e3 5abd c5a6 903d 6030 e73d
000001b0: 19c2 fcbd 7bf2 dc3d 3598 a2bc 0960 573d
000001c0: 3cc3 12be b136 133e 129f eabc 95f1 e73d
000001d0: f300 2dbc 57fa 2cbe 6f82 ca3d dd04 a03c
000001e0: d256 82be aa80 1dbe 8675 68bd 4ed7 08bc
000001f0: 3f36 cbbd 3da8 a0be b266 a63d 1d77 9dbd
00000200: deac 37be 6aa3 24be 49b6 4bbe 8ca0 893d
00000210: 11ed 21be c3ca 9fbe 7155 3fbd 7370 203e
00000220: 10c0 343c 878e 38be 6e4c 843d f785 0d3e
00000230: d41d 8f3e c997 abbc 4ac3 70be 9367 083e
00000240: f95f ebbd 59c8 89be a40b 1e3e 37e5 163e
00000250: 2c91 c3bd a691 583e 7903 24bd 7091 8fbe
00000260: 105b d7bc 2465 123e ac3d 3fbd c34a f7bd
00000270: 2aa1 e1bd 3ef7 0abe d480 aabc fea7 dd3d
00000280: c684 3b3d 27c9 20be 826b 6cbe d897 b43d
00000290: 9d49 99bc 7b87 bbbd 6c1e 203e f29b 9fbd
000002a0: 8b77 803d 8d6d 91be ccce b23d b4e3 9b3c
000002b0: fc09 23be a740 c33c 1aa5 a0bc 5f6b d03d
000002c0: 4457 3c3e 2947 0cbd 20ef 0cbd 6202 5ebd
000002d0: 9eb6 5c3d 2570 9b3b 0ad0 e8bd 65cd e93d
000002e0: e37f b23c 94fe 36be 87c7 3cbd 8c7f 453e
000002f0: 8430 293c f686 423e 6e46 f03d f91c 313e
00000300: c451 9a3d ec82 78bd fbd1 1ebe 2d91 51be
00000310: 1ded fe3d e1ca ce3d f828 213c d0f6 9a3d
00000320: 7066 5fbe fc7c f5bd 429f cebd bd84 89bd
00000330: f4e1 80bd 1708 59be 3af4 9c3d 55a1 cd3b
00000340: 50ce ac3c 6126 ccbd 2612 81bd c692 ee3d
00000350: 2d2b 85bd c26a 0cbe 4769 a73d d6c6 553e
00000360: 7a01 f03c 89f8 28be fd20 68be 9719 9dbd
00000370: 31e8 803e dba8 5cbd 2b53 3bbe 65d5 303e
00000380: 463f 9ebc a363 013e 9899 853d 9c24 f33d
00000390: af53 a9ba cd01 0d3e 20eb cc3d 75bb 9dbd
000003a0: 328b 413e 864a 6f3e 38a0 82be e334 acbd
000003b0: 451c a13b c212 68be 86e9 c73d a63c 2b3d
000003c0: 410d d7bd f58d 9f3c 2e7b 0dbc 4366 26be
000003d0: 5a7d 88bc e037 56bd fab7 afbd 2ed2 10bd
000003e0: 6e6d a6bd 572c f23d 7bda 61be b902 9ebd
000003f0: dd07 86bd 8cbd 74bd d0a2 33be f3fe fd3d
0.07672389 -0.074131325 -0.0024724195 -0.23019312 -0.054060068 -0.1706775 -0.055383675 -0.049400214
-0.21937944 0.11055317 0.035159342 0.090207875 -0.048862763 0.00681222 -0.1961179 0.08741076
-0.18048236 -0.16562656 0.06636284 -0.1602073 -0.017350245 0.02333724 -0.16776893 -0.075766556
0.027824076 -0.05607558 0.1708279 -0.075901344 0.025432816 0.18455705 0.026701799 -0.2670847
-0.06845151 0.01508558 -0.13231595 -0.09120615 -0.1462753 -0.24543744 -0.019563887 0.19201222
-0.06545801 0.1495907 -0.31981733 -0.21133432 -0.20130862 -0.10671916 0.09968102 0.08293334
0.041701484 -0.11361134 -0.1663543 -0.22750776 -0.15408038 -0.14916453 -0.22547755 -0.049312264
0.14943287 -0.02076828 0.15148075 -0.13014749 0.04616675 0.07748388 -0.049847227 0.23518194
-0.2464467 -0.04180828 0.24755685 -0.07984806 0.0080228085 -0.053487003 0.11643774 -0.14260454
0.03654177 0.01540396 -0.0063173934 -0.28959647 -0.03783178 -0.012494397 0.0034856542 0.082498424
0.064726494 -0.048610944 -0.044395782 -0.08855078 0.11763291 -0.1177476 -0.06503094 -0.03786817
0.06839819 0.101003245 -0.1868908 -0.08386729 0.06590307 -0.13608322 -0.107865095 -0.10247843
0.078835614 -0.13552056 -0.15940303 0.06711052 -0.032636452 0.080704354 -0.11386062 -0.02966098
-0.040367894 -0.053439286 0.07063059 0.11288524 -0.12341709 0.10788437 -0.019847969 0.05258182
-0.14332289 0.14376332 -0.028640304 0.11325375 -0.010559308 -0.16892372 0.098881595 0.019533569
-0.25456864 -0.15381113 -0.056752704 -0.008352114 -0.09922456 -0.31378356 0.08125056 -0.07688735
-0.17937037 -0.16077963 -0.19893755 0.06720075 -0.1581309 -0.31209382 -0.046712343 0.15667896
0.011032119 -0.1802312 0.0645989 0.13820635 0.27952445 -0.0209464 -0.23511997 0.1332076
-0.11492915 -0.26910666 0.15434128 0.14735876 -0.09549174 0.2114931 -0.040042374 -0.28040648
-0.02628854 0.14296395 -0.046689674 -0.120748065 -0.11017068 -0.13570878 -0.020813383 0.108230576
0.04578092 -0.15701734 -0.23087886 0.088180244 -0.01871186 -0.091567 0.15636605 -0.07793416
0.06272801 -0.28403893 0.087308496 0.019029476 -0.15921777 0.02383454 -0.019609977 0.101767294
0.18392664 -0.03424755 -0.034407735 -0.05420149 0.053885095 0.0047435933 -0.11367805 0.11416129
0.021789497 -0.17870551 -0.04608872 0.19286937 0.010326508 0.18996796 0.117321834 0.17296208
0.07535127 -0.06067173 -0.15509789 -0.20465536 0.124475695 0.1009729 0.009836428 0.07566607
-0.2181642 -0.119867295 -0.1008897 -0.06714771 -0.06293097 -0.21194492 0.0766377 0.006275336
0.021094471 -0.09968258 -0.0630229 0.116490886 -0.06502376 -0.137126 0.08174377 0.20876631
0.02929758 -0.16501059 -0.22668834 -0.076708965 0.25177148 -0.05387197 -0.18293445 0.17268904
-0.01931728 0.12635665 0.06523436 0.11872217 -0.0012918616 0.13770218 0.10005784 -0.0770177
0.18900755 0.23368272 -0.25512862 -0.08408525 0.0049167 -0.22663406 0.09761338 0.041805886
-0.10500575 0.01947687 -0.008635325 -0.16249947 -0.016661335 -0.05229938 -0.085800126 -0.035356693
-0.08126341 0.118248634 -0.22056 -0.07715363 -0.065444686 -0.05975108 -0.17542577 0.12402143

model.rnn.weight_hh_l1 f4 [160, 40]
00000000: b05c 8cbd b5c2 f2bd 76ba fc3b 4846 383d
00000010: 78a7 99bd b857 7cbc e522 93bc 55dc 9ebc
00000020: 1f65 f63d d209 823d f62f 13bc c952 1ebe
00000030: 063d ab3d 63f4 a2bd d336 653d 5527 79bc
00000040: 7433 113e f6ae 463c 7b8c 243d 7f3c 41be
00000050: be38 56bd 9a39 1e3d fbc8 e43d f213 033e
00000060: f361 bdbd 3473 193e 09ea 8dbc 2960 0abe
00000070: 23fb 98bd 3910 e7bc f925 0cbe 650a 11bd
00000080: 9e92 81bd e6a6 6aba 045b 1e3e e652 03be
00000090: 8d53 e0bc 89f3 423d b92e 2dbe 8c80 ddbd
000000a0: a43b 0abe 4edb 9b3c ae29 17bd 93f9 1e3c
000000b0: 68b5 65bd ad01 6c3d 0aa8 47bd b957 4d3c
000000c0: 8461 77bc 6818 203e 41f6 0e3e 19ed e73c
000000d0: 587f 03be 2c1b 61be b088 8e3d 56cc 14be
000000e0: 0031 30bc 5ae6 483e 5062 b6bd 9b3b 60bc
000000f0: 550f edbd f0db 2e3d 4150 8c3d 8022 853c
00000100: 472d 303d c4a8 d8bd ded9 f23c 715f 42bc
00000110: 50f1 1bbd b780 7a3d 2bdf 1dbe 64c4 12be
00000120: 9319 cfbd 7c70 4a3d 572f 473d 4424 50bc
00000130: 1de9 a93d 10ea 403e f44a f8ba d59d b8bd
00000140: 86cc 623d d00a d5bd 80fb f1bd 745c 803c
00000150: b116 b9bd 8e16 f9bd fa7e c33d 0f79 0d3e
00000160: c3bb da3d 04be bdbd 63ff 3b3e df45 45bd
00000170: 845e 303e 377f bb3d 06c9 d03d 5054 67be
00000180: 8999 89bc f9ae 8c3d 03d7 d1bb 435d c1bd
00000190: f067 c9bd 3fa8 b53c 2dbe ac3d 4ac1 7dbd
000001a0: c5b6 acbc f05a e8bd e4a9 2f3c 8821 943d
000001b0: 7396 2a3e 7842 413c a293 b13d caa3 d73d
000001c0: e444 3dbd 1837 773d 9830 e1bc aeb2 bcbd
000001d0: ddbb b03d 5bf9 babc c56f f4ba 6b84 2c3e
000001e0: 067c b8bd 454c d33c 6943 38be 0ad1 c73d
000001f0: 002f b5bd a2b8 e63d 250e ee3d cf7b 3abd
00000200: e9fc af3c aba1 343e dbc0 263e 9f4d f8bd
00000210: f6b0 fb3b 0659 cbbd 4d96 c73d 2019 333d
00000220: 8d8a 3fbd c040 7dbd 52ac a2bd f03a 05bd
00000230: 42ba 2abd 4c44 1a3e b9db b43c 805b 7a3d
00000240: fd8a 20be cc0a 3abe 8f22 4fbe 94c6 93be
00000250: 5636 96bc 2dc5 ef3c d34c fcbd 1a68 8f3d
00000260: 61dc 923d 0eb7 e7ba 61cf 033d 4f26 78be
00000270: 8850 993d d814 a2bc ef21 fdbd 7f30 1f3d
00000280: 9af6 2e3b d310 67be f4c2 f93d 8158 043c
00000290: e472 13be 0aa4 efbb 8269 e2bc 46ff c23d
000002a0: b21b 69bd 0655 393d f6e9 a43d cb8a 4fbe
000002b0: e4cb 433e fac3 913d 9543 143e 5ed8 afbd
000002c0: 1621 f03d 01a8 fc3d 4a20 1d3d 504d 7fbb
000002d0: c7de aabb a0b7 67be 5533 f73c ff81 a93d
000002e0: d4a3 7f3d 5904 9abb be31 e4bd 8248 e7bd
000002f0: e7db 8c3c 5467 3abe b5c1 b5bd be12 253d
00000300: 24e8 063e f654 f93d 26d5 87bd 5a60 49bd
00000310: db4c 39be 0cda 5e3b a27a 78bc 91a0 aebd
00000320: e448 f03c eaf3 d6bd 841a 8f3c ea73 893d
00000330: 0f40 eebd b402 a63d 38eb 0fbe 234e 613d
00000340: 796c 073e b03e 78bc ae59 6abe d3d4 febb
00000350: 87bb f7ba 69fc 423d c2da 4f3e ed2d 223d
00000360: 9654 86bd c48e d33d 17c6 8abd a3f4 74bd
00000370: 96cc c43c 1464 e43c 6080 c63c 1094 20be
00000380: 7912 e33d 6a6e 3f3e a13d e93c fd97 f8bc
00000390: 36c9 923d 3bb1 15bd 8711 b9bd bd25 95bd
000003a0: 7158 00be c1ae 01be 1904 f7bc c4f2 6bbd
000003b0: dae5 213e 0a8d 40bd c9ad c9bd 00d0 193e
000003c0: 4b12 2ebe 6b16 b7bc 4e1e 49ba 87a8 fcbd
000003d0: d98a a1bd 3d8a 4dbd 0527 ffbd ea7f 5ebe
000003e0: d185 3abd d718 f1bc 993c 9fbd 9b0c f63d
000003f0: 4554 0b3d b47f 09be 72fd db3d e946 f5bd
-0.06853616 -0.11853544 0.0077126576 0.0449889 -0.07502645 -0.015401773 -0.017960975 -0.019392172
0.12031006 0.06349529 -0.008983603 -0.15461268 0.08361249 -0.07956769 0.055960488 -0.015207131
0.14179784 0.012126675 0.040173035 -0.18870734 -0.052300207 0.038629152 0.111711465 0.12800577
-0.09247198 0.14985353 -0.01732351 -0.13513245 -0.074697755 -0.028205978 -0.1368636 -0.035410304
-0.06326793 -0.00089512614 0.15464407 -0.12824592 -0.02738359 0.047595534 -0.16912355 -0.10815534
-0.13499314 0.019025471 -0.036904983 0.009703058 -0.056081206 0.057618786 -0.04874424 0.012533122
-0.015098933 0.1563431 0.13961126 0.0283113 -0.12841547 -0.21983021 0.06959665 -0.14531073
-0.01075387 0.19619122 -0.0890547 -0.013686086 -0.1157519 0.042690217 0.06851245 0.016251802
0.04301193 -0.105790645 0.029644903 -0.011863575 -0.03807193 0.06115791 -0.15417163 -0.1433273
-0.101123 0.04942368 0.04862913 -0.012703959 0.08296416 0.18839288 -0.0018943236 -0.09014479
0.05537083 -0.10402453 -0.11815548 0.015669085 -0.09037531 -0.12162505 0.09545703 0.13815711
0.10680344 -0.09264758 0.18359141 -0.048162337 0.17223555 0.09155124 0.10194592 -0.22590756
-0.016796844 0.06869311 -0.006403805 -0.094416164 -0.09834278 0.022174953 0.08434711 -0.061951913
-0.021083245 -0.1134547 0.010721657 0.07232958 0.16658954 0.011795633 0.08670737 0.10529287
-0.046208277 0.060355276 -0.027488992 -0.09213768 0.08629582 -0.02282398 -0.0018649033 0.16847388
-0.090080306 0.025793204 -0.17994465 0.09756668 -0.08846855 0.11265685 0.116237916 -0.04552823
0.021482902 0.17639796 0.16284506 -0.1212418 0.0076810075 -0.09929089 0.097454645 0.043725133
-0.04676299 -0.06182933 -0.07943024 -0.03252691 -0.041681536 0.15065116 0.022077428 0.061122417
-0.1567802 -0.18168181 -0.20228027 -0.2886244 -0.018336456 0.029268825 -0.123193406 0.07002278
0.0717094 -0.0017678456 0.032180194 -0.24233364 0.07486063 -0.01978533 -0.12359988 0.03886461
0.002669728 -0.22565012 0.121953875 0.008077742 -0.14399296 -0.007313256 -0.0276382 0.09521346
-0.056911178 0.0452471 0.08052437 -0.20267789 0.19120747 0.07117458 0.14478905 -0.08586191
0.11725061 0.12336732 0.03836087 -0.0038955994 -0.0052145454 -0.22628641 0.030175844 0.08276748
0.062412098 -0.0047002253 -0.111423 -0.11293127 0.017194701 -0.18203479 -0.08874837 0.040301077
0.13174492 0.12174408 -0.06632452 -0.049164154 -0.18095724 0.0034004478 -0.015165957 -0.08526719
0.029331632 -0.10495742 0.017468698 0.06711562 -0.11633312 0.08105984 -0.14054573 0.055006158
0.13224973 -0.015151665 -0.22885773 -0.0077768355 -0.0018900492 0.047604 0.20298293 0.03959458
-0.06559102 0.10329965 -0.06776064 -0.059803616 0.024023335 0.027879752 0.024231136 -0.15681481
0.11087508 0.18694463 0.02847177 -0.030345911 0.07167284 -0.036545973 -0.09036546 -0.07282589
-0.12533738 -0.1266432 -0.030153321 -0.057604566 0.15810338 -0.047009505 -0.098476 0.15020752
-0.16999166 -0.022349557 -0.0007672057 -0.123368315 -0.07887811 -0.050180662 -0.12458614 -0.21728483
-0.045537774 -0.02943079 -0.0777523 0.12014123 0.034015913 -0.13427621 0.107417 -0.11976416

model.rnn.bias_ih_l1 f4 [160]
00000000: c84a 2ebc 30c6 153d 4454 82bc 5b33 ab3e
00000010: 9bb9 733e 078b 293e 3890 793e 2962 903e
00000020: 8edc ba3d 5a46 2fbd b7cb 75bd e6ff f13d
00000030: e2e0 653e 450d 483e 4898 383e ed1e 343e
00000040: 01f0 943c f4b5 303e 2f3c 7dbd 7141 193e
00000050: 7bab 453c 393e 0e3e 4643 043e e705 5a3c
00000060: bec6 4e3e 28ef 533d 3487 aeba d9df cb3d
00000070: 560c 87bd 4332 7f3e 3956 5b3e 45f9 873e
00000080: 537e 113e ae65 893d 29fb a03d bf51 fa3d
00000090: 362b 023e 83e8 63bc cf94 10bd 9a24 243e
000000a0: 8792 013e 32ac 0d3e d938 323e cb55 7b3d
000000b0: 8acc b9bd 5d91 ea3c e99c 1e3e f8d3 44bd
000000c0: bd34 213e 07f4 ac3c 77ec fcbb 6ec2 2cbd
000000d0: 7bc7 f13d 7a3f e0bd 3b02 8f3d 0b29 013e
000000e0: 796e 653e 140e 363d 7d7f b63d 5ccc 13be
000000f0: 565f de3d 81f2 843d ddbc 743d 9922 5c3d
00000100: 1032 aabd 4f26 51bd 1103 e73d a86e d6bd
00000110: f54b c9bd 5d88 83bd 2363 e8bd c911 afbd
00000120: 5db9 783d e862 90bd 32a6 79bd ec6e 0e3e
00000130: 67ed da3d 27a9 0ebd fa45 a23d 91b2 d03d
00000140: ab90 e5bd 10d7 c2bd f1a8 e63c 7576 c7bd
00000150: becd 35be ea63 5e3e 1f80 963a a8bf cebd
00000160: 4a09 463e 88df fb3d c811 d93d c70c 4bbe
00000170: ec99 d0bc 23c5 763d 0f5d 333e 997b 313e
00000180: d8d2 ad3c a19f 9a3d 62e0 22bd d25a 93bc
00000190: e7a1 edbd d89d da3d 77f4 1b3c 95e0 303d
000001a0: 847d 0f3e 8ad0 e5bd 7151 b4bd 4504 bbbd
000001b0: 9b15 c23d 611b 17be 8b3c c5bc 7271 44be
000001c0: aba4 d6bd b4ac ebbd 826a 133d 2d1a 243d
000001d0: 3fde 673d 7832 883d bd08 0fbe bdb8 2bbd
000001e0: 1f83 3e3d 30ca 773d da8a e23d 7c5e 633d
000001f0: c1a2 01ba 24ee 423c f8cf ee3d 2bed 103e
00000200: c197 1d3d f6ec ed3d 1ca2 3b3d e1f0 a53d
00000210: 5f7f 983d fd12 c5bc dafd 043e ca51 e53d
00000220: 7a53 363e 7a59 acbc ace1 ef3d ce94 09bd
00000230: f106 9c3c 6cca 773e 0284 68bb 289f ba3d
00000240: 3a94 623d f14a d63d a6ff 773e d6f0 883d
00000250: a865 253e c83d 323e 4085 1e3e c819 453e
00000260: f34c bb3d cfb9 6fbc caff 53bb ebf8 613e
00000270: aa7e 683e 0b9a 5d3e 8d2c cc3d 4e2e fc3d
-0.010637946 0.03656596 -0.015909322 0.3343762 0.23801272 0.16556941 0.24371421 0.2819989
0.09124099 -0.0427917 -0.06000873 0.11816387 0.22449067 0.19536312 0.1802684 0.17589922
0.018180849 0.1725691 -0.061824974 0.1496637 0.01206481 0.13890924 0.12916288 0.013307071
0.20193002 0.05174175 -0.001331544 0.09954805 -0.0659415 0.24921517 0.2141961 0.26557365
0.14208345 0.06708847 0.07860405 0.12222623 0.12711796 -0.013910416 -0.035298165 0.16029587
0.12653552 0.13835219 0.17404498 0.061361115 -0.09072216 0.028633768 0.15489544 -0.04805371
0.15742774 0.021112455 -0.0077186185 -0.04217761 0.11805626 -0.10949607 0.06982847 0.12613313
0.22405423 0.04444702 0.08911035 -0.14433426 0.10858028 0.064915664 0.059750427 0.053743932
-0.0831033 -0.051061925 0.11279882 -0.10470325 -0.09828941 -0.064224936 -0.11347034 -0.08548314
0.06072365 -0.07050115 -0.06094951 0.13909501 0.10689812 -0.034829285 0.07923503 0.10190309
-0.11209234 -0.09513676 0.02815673 -0.09739391 -0.17754266 0.21717802 0.0011482275 -0.10095149
0.19339481 0.122984946 0.10599095 -0.19829093 -0.02546402 0.060246598 0.17515968 0.17332305
0.021218702 0.07549978 -0.03976477 -0.017987642 -0.11603146 0.106746376 0.009518734 0.043182928
0.14012724 -0.11221416 -0.08804596 -0.09131674 0.09476777 -0.14756538 -0.02407672 -0.19183901
-0.10480627 -0.1150755 0.035990246 0.040064026 0.056608435 0.06650251 -0.13968177 -0.041924227
0.046511766 0.060495555 0.1106164 0.05551003 -0.00049452117 0.011897597 0.11660761 0.14152972
0.038474802 0.11617462 0.045808896 0.08102585 0.07446169 -0.024056906 0.12987462 0.11197241
0.17805281 -0.02103876 0.11712965 -0.033589177 0.019046279 0.24198312 -0.0035479073 0.09112388
0.05531714 0.10463513 0.24218616 0.06686561 0.1615206 0.1740638 0.15480518 0.19248116
0.09145536 -0.014631703 -0.0032348507 0.22067611 0.22704569 0.21640794 0.09969435 0.123135194

model.rnn.bias_hh_l1 f4 [160]
00000000: 0878 8b3c bd9e b93c d23e f73b 053f 873e
00000010: fba3 453e e1d0 553e 6788 cabc cf0a 923e
00000020: 852e e4bc d107 f2bd 106c 423e 62e5 703e
00000030: 3697 673e 1317 103d 2cd8 753e 46aa d33d
00000040: 2924 bb3d 136c 033d e2ec 5a3e 6bb0 63bc
00000050: 7531 9f3c 75cc 3d3e 1978 80bd 57a2 363e
00000060: c460 043e 838b 3f3c b272 103d 5887 113d
00000070: ee6d cc3d 3543 f33d a51b ce3d df9e 143e
00000080: 3a55 463d 35a5 5e3e 55aa 003e 9c6a f0bc
00000090: 1505 5d3d a19f 3d3e faf3 b33c d36c c83d
000000a0: 82f7 1f3e acde 4a3d 412d 8b3d a037 253e
000000b0: 362a 8ebd 9209 a2bd 2c39 1fbd 5b91 1c3e
000000c0: ede9 96bd 346b ddbd fd28 4b3b 1433 dcbc
000000d0: 5f3e bb3d b6cf 1e3e 5c0f 683d d64b 9fbd
000000e0: 7a3d 5d3e 06d5 14bd 09b9 e83d 88f2 73bc
000000f0: 008f c6bd d7ca 113e 02b2 bd3c 9f8a 98bd
00000100: 3041 043e af23 21be dcb1 b53d ae41 dabd
00000110: 0bfc 25bd a34d ff3d 09cc c0ba cbe8 a1bd
00000120: 068d e5bd fd8f 98bc b3d6 0ebd 8fbd 0a3e
00000130: aa37 0a3e fe7a 163e 47dd 5bbd 5454 ebbd
00000140: 2054 00be 6c56 83bd 8321 03bc f2df 1a3d
00000150: a259 033c c461 6bbd 341a d5bc 65c6 16be
00000160: ef45 8c3d bfe4 85bd 5c32 2dbd e8d1 20be
00000170: 1b4b b8bd 64b3 27be 6a20 a13d 40ed afbd
00000180: 34ce 12be eac1 2f3e 0a27 04bd 617d e43d
00000190: e4c8 14bd 1b5c 7f3d 1c8c 1dbd 1589 b63d
000001a0: 8666 1fbe 8814 373c b14d cabd 01e3 f6bd
000001b0: 0e38 083e f049 d0bd 80fe edbd 3780 f8bd
000001c0: f107 98bd 4971 d6bd a8fd b6bd 3dc4 37be
000001d0: b710 aabd aa0d 04bd b4cb 3abd eba8 d23d
000001e0: 0e0d f43d ddb4 243e 5fb2 803d 9b24 d33d
000001f0: ec83 4d3e ecf2 423e 75da 883e 4bcc 593e
00000200: b848 333e 561f 4abd d575 443e 651c 643e
00000210: 3fd8 2c3e 0a29 623d 8ce7 ae3d 7593 363e
00000220: 72af f73b ba9c 0d3e 7de0 f13d 8446 013a
00000230: c16c 5a3c a5cb 0f3e 64b6 b0bb 302a b53d
00000240: 9b4f 0cbd d78f f8bc 84b0 263d 5b7b f93b
00000250: 52a1 91bd cce4 603e 9720 5e3e 54bb df3d
00000260: b85f 48bb 7381 833e 180f be3d 382f 403e
00000270: b1a9 263e 3710 8abd f982 003e ccd4 703e
0.017025009 0.0226587 0.0075453306 0.26415268 0.19300835 0.20880462 -0.024723245 0.2852387
-0.027854213 -0.11817897 0.18986535 0.23525003 0.22616276 0.035178255 0.24008244 0.103352115
0.091377564 0.03208549 0.21379426 -0.013897042 0.019432763 0.18535025 -0.06272907 0.17835365
0.12927538 0.011690977 0.035265632 0.035529464 0.09981905 0.11878053 0.100638665 0.1451373
0.048421122 0.21742709 0.12564977 -0.02934771 0.053959925 0.18517925 0.021966923 0.097863816
0.1562176 0.049528763 0.06795741 0.161345 -0.06941645 -0.07911982 -0.038872883 0.15289824
-0.073688366 -0.10811463 0.0030999773 -0.026879825 0.09142756 0.15508923 0.056655273 -0.077781364
0.21605483 -0.036335967 0.11363418 -0.014889367 -0.09695244 0.14237534 0.02315617 -0.07448315
0.12915492 -0.15736268 0.088718146 -0.10657059 -0.04052357 0.1246598 -0.0014709245 -0.0790573
-0.11208539 -0.018623346 -0.034872722 0.13548873 0.13497797 0.14695355 -0.053677823 -0.11490694
-0.12532091 -0.06412968 -0.008003595 0.037811227 0.008016976 -0.057466283 -0.026013471 -0.14724119
0.06849276 -0.065377705 -0.042284355 -0.15705073 -0.089987 -0.16377026 0.078675106 -0.08590174
-0.14336473 0.17163816 -0.032263793 0.11156727 -0.036324397 0.062343698 -0.038463697 0.08912865
-0.15566453 0.011174329 -0.098781 -0.12055016 0.13302633 -0.101703525 -0.11620808 -0.1213383
-0.0742339 -0.10470826 -0.089351 -0.17945953 -0.08303969 -0.032239594 -0.045604423 0.10286125
0.119165525 0.16084619 0.062840216 0.10309716 0.20069855 0.1903798 0.2672917 0.21269338
0.17508209 -0.04934629 0.19185574 0.22276457 0.16879366 0.05521492 0.08540258 0.17829688
0.0075587565 0.13829318 0.11810396 0.0004931467 0.013331593 0.14042528 -0.0053928364 0.08845937
-0.034255605 -0.030342026 0.040695682 0.007613582 -0.071108475 0.21962279 0.2169212 0.10924402
-0.003057463 0.256847 0.09280223 0.18768013 0.1627567 -0.06741374 0.12549962 0.23518676

exp_avg f4 [1, 40]
00000000: 3803 bd3a 2325 563b 551d f0b8 95b0 2cbb
00000010: bed8 c239 5c38 a6ba 5169 963a 279a 5f3b
00000020: 2525 21ba bfe1 5bba a45d cf39 da6d 883a
00000030: 337a 133b c6ce 38b7 0d91 2bbb 8660 81ba
00000040: 3e0a 933a f430 80ba e147 b5ba 65e2 0aba
00000050: 43f0 4eba 4639 4fbb 8670 e43a 7c0d 1a3a
00000060: 22a1 aa3a 6a0f 2a36 7309 303b 70cb e2b8
00000070: defc 43b7 3dac ae3a fcc2 a63a bb26 1b3a
00000080: 9e67 5f3a 523f 333b 29a4 abb9 7920 2439
00000090: 9e79 1ebb c432 43b9 f6e1 72ba 5af5 c3ba
0.0014420515 0.0032675944 -0.00011449555 -0.0026350368 0.0003716405 -0.0012681591 0.0011475479 0.0034118982
-0.00061471976 -0.0008387826 0.00039551884 0.0010408715 0.0022503256 -1.1015398e-05 -0.0026178986 -0.0009870685
0.0011218262 -0.0009780214 -0.0013830626 -0.00052980176 -0.0007894078 -0.003161983 0.0017428554 0.0005876643
0.0013017992 2.5340946e-06 0.00268611 -0.00010814413 -1.1681781e-05 0.0013326477 0.0012722905 0.0005918552
0.0008522215 0.0027350974 -0.0003273797 0.00015652356 -0.0024181376 -0.00018615561 -0.0009265238 -0.001495044

exp_avg_sq f4 [1, 40]
00000000: 7a4a e336 472e 4538 8846 0738 5688 a037
00000010: f83e 9238 fd96 7137 c0f2 7038 bc39 fb37
00000020: e920 0938 c3f9 3336 4d13 a638 8dcb 3938
00000030: ce68 7c37 69ec 6038 1d61 a437 36cb 2f38
00000040: 3d89 0138 786b 5d38 e7a0 ae37 55ae 9e36
00000050: f65d 1637 c913 8037 fb60 b937 4a13 9b38
00000060: 3791 6836 f758 aa36 5d6e a937 b083 5037
00000070: 12ab 1138 e2da 4238 845d 3938 3102 bb38
00000080: a9ae 4b37 dfc8 b137 ebf0 7237 cb4f 4738
00000090: fcc6 f037 5ad7 a237 a21a 5237 19ca 8f37
6.7737974e-06 4.701156e-05 3.2252196e-05 1.9136973e-05 6.973551e-05 1.4399874e-05 5.7446538e-05 2.9948416e-05
3.2693995e-05 2.681846e-06 7.919092e-05 4.429701e-05 1.5044772e-05 5.3625936e-05 1.9595545e-05 4.1912506e-05
3.088381e-05 5.2790594e-05 2.0817342e-05 4.729062e-06 8.962574e-06 1.5268002e-05 2.2098879e-05 7.394569e-05
3.465522e-06 5.0767517e-06 2.0197762e-05 1.2428427e-05 3.4730016e-05 4.6457055e-05 4.419453e-05 8.917263e-05
1.2140409e-05 2.1193582e-05 1.4480417e-05 4.751961e-05 2.8702889e-05 1.9412186e-05 1.2523176e-05 1.7141037e-05

exp_avg f4 [1, 40]
00000000: 86af 7cbe fcc9 64be ff74 fdbc 22d1 943e
00000010: aae9 d9bd 094c 303e 346c 2abe bb63 9cbe
00000020: baa2 af3d 0e41 103e bc23 7a3d fadb 49be
00000030: 7c3d 71be 25fe d0bd a7f9 493e 0ffc c73d
00000040: 6d14 36be 9025 1c3e db28 5d3e e058 003e
00000050: 2b61 2f3e 3d58 9e3e 2224 6ebd 7bb5 32bd
00000060: e0ed cbbd 048c f1b9 4d26 8fbe 2c3d 0fba
00000070: 784e 49bc 0991 49be e347 4dbe ba04 49be
00000080: af5a 01be ef6c 96be 2665 c43d abbd adbd
00000090: 9cd4 373e 7648 46bd f803 cfbb 2b5d 453e
-0.24676332 -0.22342676 -0.030939577 0.29065806 -0.10640271 0.17216505 -0.16642839 -0.30544838
0.085759595 0.14087316 0.061069235 -0.1971282 -0.2355861 -0.10204724 0.19724141 0.09764873
-0.1778123 0.15248704 0.21597616 0.12533903 0.1712691 0.30926695 -0.058139928 -0.043630105
-0.099574804 -0.00046071422 -0.2795891 -0.00054641324 -0.012286775 -0.19684233 -0.20046954 -0.1963071
-0.1263225 -0.29379985 0.09589605 -0.08483442 0.17952198 -0.048408948 -0.006317612 0.19273822

exp_avg_sq f4 [1, 40]
00000000: a16b d83e 4b81 db3e 375a 1c3e 29f3 1f3f
00000010: 773d 9b3e 3748 b23e 18d3 853e 90ec 3c3f
00000020: 9792 4a3e d61f 683e d931 f23d 340b ec3e
00000030: bade d23e 7769 553e 8d9e b63e bdda ef3d
00000040: c1db a33e a056 b63e 318b b03e bbe2 fd3d
00000050: 5862 483e 483d 3d3f e781 893c 6cac 3c3e
00000060: 95e6 d33d 49d0 7d3d 3340 133f ae03 4a3c
00000070: 1fa7 f93d 97f3 a03e 2f04 bf3e 4fb1 e53e
00000080: 8262 683e 64ed 303f 7e71 d13d 21d0 433e
00000090: f09d 8d3e 1d3b f63d 4b5e 653b b417 df3e
0.42269614 0.4287208 0.15268789 0.6248041 0.3032033 0.3482072 0.26137614 0.73798466
0.19782482 0.22668394 0.11825914 0.46102297 0.41185552 0.20841013 0.3566784 0.11711643
0.32003596 0.35612965 0.34481195 0.12396761 0.19568765 0.7392163 0.016785575 0.18425149
0.103467144 0.061966214 0.57519835 0.012329979 0.12190079 0.31435844 0.3730788 0.44861838
0.22693828 0.6911223 0.10226725 0.19122364 0.2765956 0.12022994 0.003499883 0.43572772

exp_avg f4 [1, 40]
00000000: 8006 be39 a9f1 8bbb 2873 ee3a d91f 583b
00000010: 6d8a 073b 23d7 61ba 3515 5b3b 3236 8cbb
00000020: fab4 fdb9 c2f7 2f3a e35b 71b9 eaea ce3a
00000030: 23a8 7aba e6cb a439 14b1 0d3b 52c4 d8ba
00000040: 59e3 803a 3cf7 d8ba d04e 13bb 6e27 9038
00000050: 0871 28b9 205d 9b3a 1c96 02bb 5429 c2b9
00000060: e4e8 e2b7 6ac6 693b dff6 b7ba f0bb 553a
00000070: 7162 eeba 8309 833a 6549 a73a 1896 363b
00000080: 9dd3 1f3a e1e2 54ba 7cd1 b2b9 9596 423b
00000090: 6a4e aa3a 87ca 133b a106 a03a 3ff3 28bb
0.00036244467 -0.0042707515 0.0018192278 0.0032977967 0.0020681873 -0.0008615127 0.0033429388 -0.0042789215
-0.00048390758 0.0006712639 -0.00023017781 0.0015786563 -0.00095617975 0.00031432434 0.002162044 -0.0016538
0.000983338 -0.0016553174 -0.0022477396 6.8737994e-05 -0.00016063836 0.0011853315 -0.0019925898 -0.00037033355
-2.7049748e-05 0.0035671243 -0.0014035365 0.000815331 -0.0018187297 0.0009997342 0.0012762962 0.002786046
0.00060969015 -0.0008120966 -0.00034106884 0.0029691805 0.001299334 0.0022551136 0.0012209007 -0.0025779752

exp_avg_sq f4 [1, 40]
00000000: 93ed 4d3a c62c 953a df0c 8839 7ed1 b03a
00000010: a917 243a 304d 593a 5a65 c739 b1e6 153b
00000020: 5f8a 2c3a 664d f839 1a93 3d39 e5ce 853a
00000030: e69f 363a 541c bf39 6885 6a3a 3298 2539
00000040: d6c0 323a 7d60 793a b9fe 103a f2d5 3039
00000050: ce34 b339 1d79 893a 2525 4438 0317 7339
00000060: 1a57 3239 e4c3 9738 af6c b33a aeac b438
00000070: 6770 2339 ddd2 113a 50f9 5c3a 11a0 923a
00000080: 86be f739 4011 c83a d32e 0c39 8d12 9839
00000090: 6ae1 213a 1127 f338 4eee 8438 0e16 353a
0.0007855531 0.0011381141 0.0002594953 0.0013490168 0.0006259629 0.0008289395 0.0003803175 0.0022873098
0.0006581898 0.00047359912 0.00018079244 0.0010208754 0.0006966576 0.00036451465 0.00089462707 0.00015792323
0.0006818896 0.0009512974 0.00055311207 0.00016864369 0.00034180883 0.0010488365 4.6764635e-05 0.00023182858
0.0001700785 7.2367286e-05 0.0013689006 8.615233e-05 0.00015586764 0.0005562732 0.00084294844 0.001118662
0.00047253462 0.001526393 0.00013368884 0.0002900552 0.0006175252 0.000115944196 6.338638e-05 0.00069078885
