gluonts_univariate_forecasting/lightning_logs/version_0/checkpoints/epoch=9-step=500.ckpt (torch, 330179 bytes, 33 tensors)

model.param_proj.proj.0.weight f4 [1, 40]
000000 38 8f 0e 3e 40 7d a6 bd 35 6b 61 3e fa 3c 7f be
       0.13921821 -0.08129358 0.22013552 -0.24925604
000010 39 a7 1c 3e b8 f1 59 3e c9 41 7c be a3 c9 bd 3d
       0.15298165 0.21283615 -0.2463447 0.09266975
000020 5a b9 94 be 3f 9a a5 bd 70 57 a0 bc a1 2f 89 be
       -0.29047662 -0.08086061 -0.019572943 -0.2679415
000030 fd e7 98 3e 7d bc a1 be cc 12 41 3e 17 a1 f1 3a
       0.29864493 -0.31589118 0.18854827 0.0018434849
000040 93 ed 98 be 2b 2b 52 3d 61 a5 42 be e3 e2 de bb
       -0.29868755 0.0513107 -0.190084 -0.0068019493
000050 20 2c 65 3d 02 f2 95 be 9b ba d5 3d f7 0f 0f bd
       0.055950284 -0.292862 0.10435983 -0.034927335
000060 ec a3 70 3e 38 bf e2 bc 70 34 7a be 6f 02 ea 3d
       0.23500031 -0.02767907 -0.24434066 0.114262454
000070 02 ac 24 3e 86 99 94 be cf 12 3e be 72 12 b8 3e
       0.16081241 -0.2902338 -0.18561862 0.35951573
000080 9c c9 d4 bd 27 e3 f4 bc 99 bc fc bd b2 bf 08 3e
       -0.103900164 -0.02989347 -0.1234066 0.13354376
000090 97 15 37 3e 98 f1 ac be 15 a7 42 bd bb ff 83 be
       0.1787933 -0.3377807 -0.047522623 -0.25781044

model.param_proj.proj.1.weight f4 [1, 40]
000000 b1 e1 5a be 24 99 75 be d6 d9 42 be 98 37 2e 3e
       -0.21375157 -0.239842 -0.1902841 0.17013395
000010 4e e0 3e be 6f a2 10 be a7 e8 f8 3d f0 56 cc bd
       -0.18640253 -0.14124463 0.1215375 -0.099775195
000020 74 1f b4 3b 6e 67 5e 3d 5b 76 47 3e d1 e3 97 bd
       0.0054969136 0.054297857 0.19478743 -0.074164994
000030 ec 5f 0a be b8 5b 3f 3e b4 fe 53 be 62 43 c1 3d
       -0.13513154 0.18687332 -0.2070263 0.094366804
000040 98 8c 91 3d ac d3 00 be 9c a2 b0 3c f1 9d 64 3e
       0.07106894 -0.12580746 0.021561913 0.22325875
000050 28 d7 69 3e 07 2f 55 be b6 f5 44 be 01 29 58 bd
       0.22835982 -0.20818721 -0.19234356 -0.05277348
000060 3a 42 63 be 22 f0 5d 3e a5 0c 08 3d 2d c9 61 be
       -0.22193232 0.21673635 0.033215184 -0.22049399
000070 9a 50 33 be 33 80 5d 3d 4f 58 2c 3e e0 70 08 be
       -0.17511216 0.05407734 0.16830562 -0.13324308
000080 cb b4 11 3e 71 4f df 3c 01 1f 37 3e 22 2f 21 3d
       0.14229123 0.02725956 0.17882921 0.03935159
000090 a2 18 85 bd 07 cc 20 3e e8 5f 20 be 64 5c 15 3e
       -0.06498839 0.1570283 -0.15661585 0.14586025

model.param_proj.proj.2.weight f4 [1, 40]
000000 9f 1b 70 be de 6f 05 be 3e d6 15 be 39 99 60 be
       -0.23448037 -0.13030955 -0.14632508 -0.2193345
000010 7c 61 6f be 44 3b 30 3e 0d dc 20 3e 98 06 68 3e
       -0.23377031 0.17210108 0.15708943 0.22658765
000020 14 ed 12 3e 22 34 7d bd a6 68 0d be a5 22 81 3e
       0.1434825 -0.061817296 -0.13809451 0.25221744
000030 2e cd 4b bd a4 21 62 3e c3 e9 6d 3e 71 9f 0e 3e
       -0.04975622 0.22083145 0.23233704 0.1392801
000040 0a cb 72 3e f2 1f 0a be 35 f8 07 bd 85 70 f1 bd
       0.23710266 -0.13488749 -0.033195693 -0.117890395
000050 c6 6a 37 be 5e 20 e3 3d 77 54 90 be ac 38 ef 3d
       -0.17911825 0.11090158 -0.28189442 0.11680731
000060 4a d6 80 bd e0 ae a4 bd 37 ea 97 3e 81 42 32 be
       -0.062908724 -0.08041167 0.2967088 -0.17408182
000070 f8 cf fe 3d 42 68 3e 3e 1b 61 fc bd ff cf 71 be
       0.12442011 0.18594459 -0.12323209 -0.236145
000080 6a fa 96 bd 55 5f 3a be 68 7d d4 3d 09 37 6a be
       -0.073719814 -0.18200429 0.10375482 -0.22872557
000090 78 93 84 be 95 92 84 3e fd a5 27 3e fb d2 75 3d
       -0.2589376 0.25893083 0.16371913 0.06001566

model.rnn.weight_ih_l0 f4 [160, 37]
000000 3c 16 37 3d 35 90 8d 3d a0 28 83 3d 9b a2 13 be
       0.04469894 0.06912271 0.06404233 -0.14417498
000010 44 a2 d5 3d 34 8a 2b bd 44 42 d6 3d 87 32 85 3d
       0.1043134 -0.041879848 0.10461858 0.06503778
000020 88 aa df 3d d6 d3 b0 bc 69 27 90 3b aa 6d b0 bd
       0.10921198 -0.021585386 0.0043992293 -0.08614667
000030 f4 23 bc 3d 8c 5e b0 3c 25 cf ba bd 7e 2b c6 3d
       0.09186545 0.021529458 -0.09121541 0.09676264
000040 45 38 ee 3c 10 2e eb 3d 69 a3 4a 3c 35 65 63 bd
       0.029079566 0.11483395 0.012368062 -0.05551644
000050 d3 a7 90 3d 89 e0 cc 3d a6 f3 6e bd e8 6a 86 bc
       0.0706326 0.10003764 -0.05833783 -0.016408399
000060 9f d8 b8 bd a5 60 bd bd cc a5 cc bd 40 15 92 bd
       -0.09025692 -0.09246949 -0.09992561 -0.07132959
000070 82 f7 64 3c 4e b5 0a bd f1 11 7c be a1 4f cc 3b
       0.013975026 -0.033864312 -0.24616219 0.0062350784
000080 34 b4 32 be 86 7d c5 3d 58 ea 13 be 27 5e aa bd
       -0.17451555 0.09643082 -0.14444864 -0.083187394
000090 49 0b fb 3d 22 38 35 3e c5 82 08 3e 6d d4 18 3e
       0.12258012 0.17697194 0.13331135 0.14924784
0000a0 1d 5a 34 3e ef c7 a7 3d 59 b1 12 3e 6a de 92 3b
       0.176125 0.08192431 0.14325465 0.00448208
0000b0 05 4f 5f 3e 01 cf e9 3d 7a d2 9e bd 8e ff a1 3c
       0.21807487 0.11416436 -0.07754989 0.019775178
0000c0 3f c4 a2 3c cc 34 33 be 5f 9c 92 3a 31 c0 9e 3d
       0.019868968 -0.17500609 0.0011185518 0.07751501
0000d0 78 22 88 3d 0a 88 1a 3d fe 0c 20 be 7d c5 e2 3d
       0.066471994 0.037727393 -0.15629956 0.11072824
0000e0 ca 43 e1 3d ac 5c c5 3d 40 f2 13 3c 79 c3 a6 3b
       0.10999258 0.096368164 0.009029925 0.00508922
0000f0 b3 57 97 bd c9 43 82 bd c3 c8 84 bd e6 d4 f0 bb
       -0.07389774 -0.06360585 -0.06483605 -0.007349598
000100 f0 f8 b8 bd 88 84 bb 3d a0 a7 87 3d 78 0d fc bc
       -0.09031856 0.09156138 0.06623769 -0.030768141
000110 e6 88 a0 bd f8 6e 79 3e b8 85 89 bc 88 d7 69 be
       -0.07838611 0.24358737 -0.016787395 -0.22836125
000120 98 62 2b be 03 84 a3 bc b6 95 52 3d d2 28 55 be
       -0.1673683 -0.019960409 0.051412307 -0.20816353
000130 c3 ae 00 be ad ed a1 bd 10 9c 88 3d fe 48 c5 bd
       -0.12566666 -0.07906661 0.066703916 -0.09633063
000140 5c 0a 4f 3c 11 81 06 bd 07 13 df 3d 1b cd 6d bc
       0.012636747 -0.03283793 0.10892301 -0.014514233
000150 ff 2b 00 3d 98 e6 98 3d 49 b2 8e 3c 48 5b 32 be
       0.031291958 0.07465857 0.017418997 -0.17417634
000160 6a 61 0d be d9 1b b4 3d 4e f8 c0 3d c3 1c fe 3d
       -0.13806692 0.08794374 0.0942236 0.124078296
000170 9d fa 9e bd 6f c6 e8 3d e5 3f a7 3d a3 6f 85 bd
       -0.077626444 0.11365973 0.08166484 -0.06515434
000180 15 71 f4 b9 0c 93 52 bc 5f d9 08 3d e6 65 b9 3d
       -0.0004662356 -0.0128524415 0.033410426 0.09052639
000190 e5 56 32 3d b6 bf 8e bd 4e 08 9c 3d 85 c6 a5 bb
       0.0435399 -0.0697016 0.076187715 -0.0050590658
0001a0 34 24 13 be 03 41 9b 3d 7d f4 81 be 14 dc 63 3e
       -0.14369279 0.075807594 -0.25381842 0.22251922
0001b0 74 bb cb bd 9d 05 1c be 90 d4 26 3e e7 ed 7f 3c
       -0.09947863 -0.15236516 0.16292024 0.015620685
0001c0 dd 16 e1 3c 33 55 d0 3d e1 98 0d be e0 43 09 be
       0.027476722 0.101725005 -0.1382785 -0.13404799
0001d0 a2 f5 2e be 1b 29 2d 3d 32 2e a6 3c 08 62 ed 3d
       -0.17085889 0.04227553 0.0202857 0.115909636
0001e0 18 d8 29 3e ec b1 42 bd 89 d9 dd bd 58 da be 3d
       0.1658634 -0.04753296 -0.10832507 0.093189895
0001f0 e0 aa 3d be cb af da bb ba a2 8b bd f9 05 7e bd
       -0.18522215 -0.006673788 -0.06818147 -0.062017415
000200 fa 8d 0a 3c ba 07 be 3d 1d e1 d3 bd ce 5f 4b bd
       0.008456701 0.092788175 -0.10345671 -0.049651913
000210 fb dd 9c 3d 68 1e 8e bd f0 06 e4 3c 7d 90 ec bb
       0.07659527 -0.06939393 0.02783534 -0.007219373
000220 0a e0 c1 3c 9d 22 84 3d 8f 3f a4 3d 63 32 b1 3d
       0.0236664 0.064519145 0.08019935 0.08652189
000230 40 00 88 3c bc d6 d2 3d eb d6 e1 bc fc 3f 41 be
       0.016601682 0.102948636 -0.027568301 -0.18872064
000240 5e 49 2f bd 9a 32 3b bd b8 09 ac 3d 15 26 b8 3c
       -0.042794578 -0.045702554 0.08400291 0.022479096
000250 8a b6 95 3d d2 23 81 3d d1 23 2b 3e 2f 01 16 bd
       0.07310207 0.0630566 0.16712882 -0.036622223
000260 d5 60 9a bc d1 6e 9c 3d 7a c9 16 3e 46 46 1f bd
       -0.018845001 0.07638324 0.14725295 -0.038885377
000270 56 36 60 bd cc c0 1f 3e 36 db 2f 3e 36 79 d4 bd
       -0.05473932 0.1560089 0.17173466 -0.10374682
000280 cf 41 28 be 67 d6 86 bc 2c e2 9c bd 41 96 c1 bc
       -0.16431354 -0.016459657 -0.07660326 -0.023631217
000290 78 3a 10 bd 37 db 08 3d 75 f4 00 bd bd 1d bf 3d
       -0.03521201 0.033412185 -0.031483132 0.09331844
0002a0 9e 4e 06 bd 3d d6 ef 3b db ec 60 3d a8 30 e0 3c
       -0.03278982 0.0073192404 0.054913383 0.027366951
0002b0 ae 45 2f 3d ff 4e 95 3d 0c e9 73 bd 5b 35 89 bc
       0.04279106 0.07290458 -0.059548423 -0.016749075
0002c0 a0 b0 b8 bd e7 27 44 bc ae 91 32 3d bc 03 28 3d
       -0.090180635 -0.011972404 0.043595962 0.041019186
0002d0 80 a8 e0 3c 9c 61 96 be aa 41 f0 3d b6 df 44 bb
       0.027424097 -0.29371345 0.117312744 -0.0030040569
0002e0 54 97 64 3e 1b 56 b7 3d be c0 7d 3d dd 5f a9 bd
       0.22323352 0.0895197 0.06195139 -0.082702376
0002f0 ab ef 9d bd 3f 0c 66 bd 35 34 39 3d e2 90 02 bd
       -0.07711729 -0.056164023 0.045215804 -0.031876452
000300 6d 37 02 bd 6b a0 0d 3e d8 ca 04 3d 60 3e 31 3e
       -0.03179114 0.13830726 0.03242001 0.1730895
000310 20 78 8c 3d 76 e7 05 be 8b 39 97 3d d0 96 af bd
       0.068588495 -0.13076577 0.07384022 -0.08573687
000320 9e 90 1d 3e 78 d2 8f 3d 5d eb fa 3d 3c 3c 47 3d
       0.15387198 0.070225656 0.12251923 0.04864143
000330 50 16 57 3e 31 ab 20 be a4 67 e6 3c 3e 54 aa 3d
       0.21004605 -0.15690304 0.028125592 0.08316849
000340 22 3d b8 3d e6 e7 a4 bd 7b a6 be 3d 7f 59 c8 bd
       0.08996035 -0.080520436 0.093090974 -0.09782695
000350 cf 0f ca bd bc fc b2 3d f2 b0 4c 3d d5 b1 d4 bd
       -0.098662965 0.087396115 0.049973436 -0.10385481
000360 d1 bb f7 3b 11 fd 91 3c 2a a3 ba 3d ce 38 01 be
       0.0075602313 0.017820867 0.09113152 -0.12619326
000370 79 cc db bd 0d b1 48 bc 3d 71 c2 3d 7a 3a 8b 3d
       -0.107323594 -0.012249243 0.09494255 0.06798263
000380 71 84 7c 3b 8e 87 18 3d c2 6f ff 3d a2 88 56 bc
       0.003853109 0.03723865 0.12472488 -0.013094099
000390 2b 56 d7 bd f1 a7 d9 3d 91 21 ba bd 5a 63 05 3d
       -0.10514482 0.106277354 -0.090884335 0.032565452
0003a0 f9 97 19 be 92 7f d0 3c 1d 03 29 be e9 7b 79 bb
       -0.14999379 0.025451455 -0.16505094 -0.003806824
0003b0 15 58 83 be 41 cc b0 bd a7 38 f4 bd 38 84 0b be
       -0.2565314 -0.08632708 -0.11924868 -0.13624656
0003c0 a9 44 ce bd b5 f6 37 3c af 89 e1 3d ee fd aa bd
       -0.1007169 0.011228253 0.11012589 -0.083492145
0003d0 64 eb f8 3c bd 14 8d bd cb 4a ed bc 51 61 31 bd
       0.03038568 -0.06888721 -0.028966328 -0.0433057
0003e0 91 f8 56 bc 81 5b 93 bd 40 d7 c8 3d fe 61 79 bd
       -0.013120786 -0.07195187 0.09806681 -0.06088447
0003f0 9a f3 7c bd 73 76 cf 3d 53 98 7e be 22 c5 bd 3e
       -0.061755754 0.10130014 -0.24862795 0.37064463

model.rnn.weight_hh_l0 f4 [160, 40]
000000 35 a6 18 3c ce f3 38 be e6 31 31 3e ff 12 0a be
       0.009316971 -0.18061754 0.17304191 -0.13483809
000010 3e dd ad 3a 61 6f 3f 3d 44 91 20 3d fc 34 e1 3d
       0.0013264788 0.04673708 0.039201036 0.10996434
000020 e2 0d c6 bd cd 04 14 be 0f 69 58 bd f6 99 03 3e
       -0.09670617 -0.14454956 -0.052834567 0.128517
000030 87 29 fb bd 5a 22 df bd c1 1d 45 3e f8 42 5b 3d
       -0.1226378 -0.10895224 0.19249631 0.053530663
000040 db d4 50 3e ca 06 ca bc ed 9e 5e 3e 01 19 93 be
       0.20393698 -0.02466144 0.21740313 -0.28730014
000050 43 00 85 bc c7 88 20 be e1 8f 99 3c 7e 3f f3 bd
       -0.016235476 -0.15677176 0.018745365 -0.118773445
000060 e4 37 5e 3c 93 1c 97 bd 88 d7 18 be 51 d4 eb 3d
       0.01356313 -0.07378497 -0.14925969 0.115151055
000070 92 58 8b be e7 fa aa bd 07 95 ff 3c e5 d4 ba bc
       -0.2721601 -0.08348637 0.031198991 -0.022806594
000080 97 f0 a1 3b 41 59 ce 3d b8 0a 8a bd 6c dd db bd
       0.0049420106 0.100756176 -0.06740326 -0.10735592
000090 4b 7a 0e 3e 55 3b da bd 6a 14 65 3d 5b 3a d4 bc
       0.13913839 -0.10655848 0.05592767 -0.025906732
0000a0 5e a3 16 3e e3 07 90 bd ad b2 10 3e 19 99 7e bd
       0.14710757 -0.07032754 0.1413066 -0.062157724
0000b0 bf 98 c7 bc f0 74 2f bb d9 38 16 3b 34 ee 74 3e
       -0.024364827 -0.002677258 0.0022922067 0.23918992
0000c0 87 1f 17 be cd d2 89 be cc fa 61 3d f7 3a 3f 3e
       -0.1475812 -0.2691864 0.05517082 0.18674837
0000d0 71 b2 9e 3d 43 ac b2 bd 17 22 8e 3d 2e 7d 7f bd
       0.07748879 -0.087242626 0.06940096 -0.06237524
0000e0 99 33 1d bd 5d 16 56 bd f4 86 34 3e 8e b4 ac bd
       -0.038379285 -0.05226742 0.17629606 -0.084328756
0000f0 a1 fd 3c be d4 5e aa bd 26 07 f1 bd b4 6e 33 3c
       -0.18456127 -0.08318868 -0.117689416 0.010951687
000100 07 90 89 3d 20 de 2e be 2f 77 7b 3d dc 42 85 3d
       0.06716924 -0.17076921 0.06139296 0.06506893
000110 9c a7 00 be 54 7e 85 ba da c0 21 be fc db 62 3e
       -0.12563938 -0.0010184743 -0.15796223 0.2215423
000120 1e 21 17 3e f9 34 09 be b2 d4 c4 3c 3b 43 fb 3d
       0.14758727 -0.13399114 0.024027202 0.122686826
000130 ca f3 43 bd 1d 24 dc 3d d5 de 6e bd b0 fe 63 3c
       -0.047839917 0.107490756 -0.058317978 0.013915703
000140 eb 3d eb 3d 60 ad 5d be 1b a9 8e bb 99 9d 36 bb
       0.11486419 -0.21648169 -0.004353655 -0.0027864932
000150 92 c7 3a 3d b1 8f 4a be 85 43 37 bc 26 f4 de bd
       0.04560048 -0.19781376 -0.0111855315 -0.10886411
000160 39 33 56 3e a2 ac 78 bd 3f 42 9b 3a 8d ab 24 3c
       0.20917977 -0.06071151 0.0011845304 0.0100506665
000170 e0 01 74 bd 09 e2 83 bd 47 35 10 3e ca dd d1 bd
       -0.0595721 -0.06439597 0.14082824 -0.10247381
000180 06 44 cf 3d f8 fa e0 bd cf e7 e3 3c 4d 16 e0 bd
       0.10120396 -0.109853685 0.027820496 -0.109417535
000190 fb 16 81 3c 76 f6 80 3d c4 23 f7 bd f0 e8 ef 3d
       0.015758028 0.06297009 -0.120673686 0.11714351
0001a0 73 ed cc 3d 0c cc 25 3e 6d a9 1a be 14 a4 83 bd
       0.10006227 0.16191119 -0.15103693 -0.0642778
0001b0 96 a4 1d be a8 c2 0b 3d 4b 49 a3 3d a3 0d 0c be
       -0.15394816 0.034121186 0.07972964 -0.13677077
0001c0 fd 23 d2 bc 27 5a b9 3d ac fb 97 3d 2c 36 08 be
       -0.025651926 0.09050398 0.074210495 -0.13301915
0001d0 cc 8a 59 bd 1c d4 1a 3d 5a e7 13 be fd ad 91 3d
       -0.053110883 0.03779994 -0.14443722 0.07113264
0001e0 fa dd 13 3e 73 f9 27 be a6 a5 6d 3d eb 5e 3e be
       0.14440146 -0.16403751 0.058019303 -0.18590896
0001f0 8d 0f 4b 3e 07 09 65 be 12 51 a1 bd d9 8b 3a 3d
       0.19830151 -0.22366725 -0.07876791 0.045543525
000200 f8 28 b8 bd 61 8a 9d 3c aa ec 55 be 78 3b 65 bd
       -0.08992189 0.019231023 -0.20891061 -0.055964917
000210 12 a4 f3 bd 7a 96 19 3e 40 18 e7 3d f2 47 65 3d
       -0.11896528 0.14998809 0.11283922 0.055976816
000220 df b6 49 3e 75 c6 ea 3d 98 87 ea bd 0a 63 f6 3d
       0.19698666 0.11463634 -0.11451644 0.12030609
000230 f2 01 6b be 12 2c d5 3c 7e 8b 02 bd 0e 89 dd 3c
       -0.22949961 0.02602199 -0.03187131 0.027042892
000240 86 96 92 bd 92 7c 27 bd 3f f8 6a be 28 c0 be bd
       -0.07157616 -0.040890284 -0.22946261 -0.09313995
000250 2c cc 0b be 09 3d c3 3d bf 2f 32 be ed 83 fa 3d
       -0.13652104 0.09533126 -0.17401026 0.12232194
000260 e9 7f b2 bd 1d 8a e5 ba 1d 14 d4 bd 1f cf 36 be
       -0.08715803 -0.0017512474 -0.10355399 -0.17852448
000270 64 c6 51 3e 24 2a c5 3d 3b 29 0d bd 12 b7 00 bd
       0.20485836 0.09627178 -0.03446315 -0.03142459
000280 99 84 18 bc 8e e9 53 3c 5a 12 ea bc 11 1e 2a 3e
       -0.0093089575 0.012934102 -0.028573204 0.16613032
000290 2f e2 70 be 8b cc 33 be 7b 63 92 be 63 be ea 3d
       -0.23523782 -0.17558496 -0.28591523 0.11462095
0002a0 9f 28 cb bd 8c 2f e7 bd a2 ce 3b be 94 ab d7 3c
       -0.09919857 -0.11288366 -0.18340543 0.026326932
0002b0 0d 0a a0 bc a6 28 2e bd 41 c6 8d bd 87 82 b9 bd
       -0.019536043 -0.042519234 -0.069225796 -0.09058099
0002c0 a5 b9 14 be 70 59 cc bd 8a c3 da bb 07 c8 c0 bd
       -0.14523943 -0.09977996 -0.006676142 -0.09413152
0002d0 3f 3e cc bc e4 f3 3c 3c 16 60 45 bd dc ed 50 bd
       -0.024932025 0.011532757 -0.048187338 -0.05100809
0002e0 08 5f 4e 3e d1 2e 48 3d a9 6d b9 3d 43 00 29 3e
       0.20153439 0.048872773 0.09054119 0.16504006
0002f0 44 b9 42 be 90 98 f3 bd 52 bb 6b 3b 3d 72 24 3d
       -0.19015986 -0.11894333 0.0035969806 0.04014801
000300 3f 1e 24 3e 8d fb 80 bd 30 cb b5 bd 36 d5 7f 3d
       0.16027163 -0.062979795 -0.088766456 0.062459193
000310 b9 0d 8c bd 18 d8 6b 3e 41 ad 0a be 32 06 f5 bd
       -0.06838555 0.23031652 -0.13542654 -0.11964072
000320 24 11 0f 3e cf c4 1c be ec 61 aa bd c2 07 c3 3c
       0.13971382 -0.15309452 -0.08319458 0.02380741
000330 40 43 97 be 71 89 d3 bd 61 4a dd 3c b8 b3 6a 3d
       -0.29543495 -0.10328949 0.027013006 0.0573003
000340 68 e2 17 3e 03 bd b0 bd 17 6e 14 bd 4a 53 15 be
       0.14832461 -0.08629801 -0.036237802 -0.14582554
000350 4b 67 3d be 77 95 e9 3c 33 bc 88 bc 1b 47 06 be
       -0.18496434 0.028513653 -0.016691303 -0.13113062
000360 d7 1f 1d 3e b8 14 56 3e 56 8e 69 3d 13 96 22 bd
       0.15344177 0.20906341 0.057020508 -0.039693903
000370 0f 05 a9 3c 22 f7 10 bd 86 cd 6b bd 0b 48 56 3d
       0.020632295 -0.035391934 -0.05756905 0.0523148
000380 d7 0f 0f 3e 43 24 42 3b 91 37 1b bd 99 d4 f4 bd
       0.13970886 0.0029623664 -0.03789479 -0.11954612
000390 2e 18 01 3d 4c 88 54 be e3 f0 07 bc 16 df c5 3d
       0.0315172 -0.20755118 -0.008297178 0.09661691
0003a0 3f 84 92 bd ef 96 03 3e fb 9b 07 be d3 30 ac bd
       -0.0715413 0.12850545 -0.13243096 -0.0840775
0003b0 a7 7e 19 3e b2 29 55 3e a2 61 3a 3c e1 f1 c8 bd
       0.1498972 0.20816687 0.011375817 -0.0981176
0003c0 6d 6e 0b 3c 60 3a 98 bd 72 88 1f bd e8 f0 b8 3d
       0.008510214 -0.07433009 -0.038948484 0.09030324
0003d0 1a 1a 20 3e 72 29 c0 3c bb cf 0d 3a 94 93 32 bd
       0.15634957 0.023457263 0.00054096774 -0.043597773
0003e0 25 ee 37 3e 0f 97 3e bd 2e a2 09 3d a8 1b 99 3d
       0.17961939 -0.04653078 0.033601932 0.07475978
0003f0 10 71 d0 3d 78 fa 04 3d c3 e9 68 bd 7d 92 39 be
       0.10177815 0.032465428 -0.056863558 -0.18122287

model.rnn.bias_ih_l0 f4 [160]
000000 8c d3 73 3e d2 a6 55 3e d1 20 6f bd 06 1d 45 3e
       0.23811167 0.20864418 -0.058380906 0.19249353
000010 df a0 3c 3e d6 76 2f 3e 13 39 e4 3d 07 fd 9f 3d
       0.18420742 0.17135176 0.111436985 0.07811933
000020 0c 70 7e 3d 51 a2 2d 3e 97 f1 61 3e 40 d6 eb 3d
       0.062118575 0.1695645 0.22064815 0.11515474
000030 82 9b ad 3c 87 a2 44 3e ad 88 91 bd cb 25 98 3d
       0.021192316 0.19202624 -0.07106147 0.074290834
000040 05 3c 69 3e 6c c1 44 3e ca 55 8f 3c 18 47 39 3e
       0.22776802 0.1921441 0.017496962 0.18093526
000050 2c 36 28 3e 45 ae 5b 3e c7 ef 23 3e d9 4a 78 3d
       0.16426915 0.21453197 0.16009437 0.060618255
000060 15 a4 51 3e cc 1c 16 bd 69 02 f8 bb 12 a3 31 3e
       0.20472749 -0.036648557 -0.0075686467 0.17347363
000070 1a 08 d0 3b 12 45 20 3e fe 33 cf 3c 3a 04 50 3e
       0.006348622 0.15651348 0.025293346 0.20314112
000080 49 84 36 3e e9 3b 92 bc 02 14 35 3e 7a 50 85 3e
       0.178239 -0.017850833 0.17683414 0.2603796
000090 34 d6 29 3e a4 05 da bd d4 1e 4b 3e a2 a3 bb 3b
       0.16585618 -0.10645607 0.19835979 0.0057262937
0000a0 ba 00 a3 3d 38 f9 57 bc 65 d1 4c bd f6 91 ca bd
       0.07959123 -0.013181977 -0.05000438 -0.09891121
0000b0 68 0a 07 be 07 cf fe bd 07 45 98 bb a6 12 8d 3d
       -0.13187563 -0.12441831 -0.0046469006 0.068883225
0000c0 f2 62 e8 bd fa 32 37 be 72 24 ec 3d fe c0 31 bc
       -0.11346997 -0.1789054 0.11530389 -0.010849236
0000d0 68 69 b4 bd dc 7c 87 3d 3c 6e e9 bd 09 ad e3 bd
       -0.08809167 0.06615612 -0.11397979 -0.11116988
0000e0 64 48 a6 bd f4 fa 2d 3e 5e b1 fe 3d 86 ea 4a bb
       -0.08119276 0.16990262 0.12436174 -0.003096254
0000f0 41 6f 28 3e 20 53 fd 3c f0 fa 46 bd f7 6f 0c be
       0.1644869 0.030923426 -0.048579156 -0.13714586
000100 23 3c 2c be d3 8b 39 bd a0 47 2b bd 9f b1 ba bd
       -0.16819815 -0.045299362 -0.041816354 -0.0911591
000110 fe 92 af 3d 61 cd 8c bd 67 f6 d8 3d 39 ab 20 be
       0.085729584 -0.068751104 0.105938725 -0.15690316
000120 29 36 ae bb cd d6 9c 3d 51 e3 61 bc 70 1c 01 3e
       -0.005316515 0.076581575 -0.013787107 0.12608504
000130 1d be aa 3d 16 b2 e2 bd 05 ef c4 3d 62 bf fe 3d
       0.083370425 -0.110691234 0.09615902 0.12438847
000140 85 23 66 bd 31 e3 93 3d 5c d6 c2 3d c9 d2 43 bd
       -0.056186218 0.07221068 0.09513542 -0.047808442
000150 7d 2e 47 bb 76 46 13 bd c3 c7 a2 bd 5a 8d ed 3d
       -0.00303927 -0.03595587 -0.07948258 0.11599226
000160 67 77 51 bd 54 24 07 be 2e 9f f1 bd 4c a6 70 bc
       -0.05113926 -0.13197452 -0.11797939 -0.014688086
000170 b8 65 05 be de b5 8c 3d 07 c8 e2 3d 15 c1 8b bd
       -0.13027084 0.06870626 0.110733084 -0.06823937
000180 28 33 d5 bb 9d 9b 96 3d 6a ee d8 3d 3f cd b3 3c
       -0.0065063424 0.073539 0.10592349 0.021948455
000190 13 bf f4 bd 52 43 a2 bd c9 39 99 bd 1b f1 21 3d
       -0.11950507 -0.079229966 -0.07481725 0.039536577
0001a0 6b 94 17 3e 2c 2a 61 bc 75 02 56 bd b5 a2 a0 bc
       0.1480271 -0.013742965 -0.052248437 -0.019608835
0001b0 ba 3b ab bd ef 9b dc 3d b4 c7 21 be 1c aa 1a 3e
       -0.08361001 0.107719295 -0.15798837 0.15103954
0001c0 7a ed 3a 3e 2c b8 2b 3d a5 6b dd bd c6 19 03 3e
       0.18254653 0.041923687 -0.10811547 0.128028
0001d0 73 37 a4 3d ad 2a 05 be b7 cc 65 3c 8f 72 a7 3d
       0.080183886 -0.13004561 0.014025859 0.08176147
0001e0 de 42 16 bd 85 16 0c 3e 10 bd 5b 3e 53 57 79 bd
       -0.036684863 0.13680466 0.2145884 -0.060874294
0001f0 7b 8d 84 3d 0a 41 ba 3d a9 d4 40 3e 5c 32 89 bc
       0.06472298 0.090944365 0.18831123 -0.016747646
000200 ab ee 14 3e cf 8b 5a 3e af 5f 56 3e 26 ed e2 3c
       0.1454417 0.21342395 0.20934938 0.027700972
000210 9b 74 98 bd 01 94 2c 3d a6 c3 e6 3d f3 fb 9a 3a
       -0.07444116 0.042133335 0.11267786 0.0011824354
000220 ab 6d 61 3e 19 98 ff 3d 99 8a a1 3d 41 bb 87 bd
       0.22014491 0.12480182 0.078877635 -0.06627513
000230 c6 8a 8a bd c0 77 6c 3c f1 cf 2f 3e 82 1c 39 3e
       -0.0676475 0.0144328475 0.17169167 0.18077281
000240 4b ae 98 3e 6a 71 83 3e 1f 04 95 3c f7 a6 c8 3d
       0.29820475 0.25672466 0.018190442 0.09797471
000250 c8 f5 18 3c 43 d3 c4 3d 63 3c ef 3d 2e 08 31 3e
       0.009335943 0.096106075 0.1168144 0.17288277
000260 85 fc cc 3d 5c 32 37 3e 0d f3 fc 3c 3d f0 56 bc
       0.10009102 0.17890304 0.030877614 -0.013118801
000270 ab 66 aa bd bb d2 19 be cb 86 bc 3c d4 b9 5e 3e
       -0.083203636 -0.15021794 0.023013493 0.21750575

model.rnn.bias_hh_l0 f4 [160]
000000 88 01 a1 3d ec 48 7b 3e be 91 7f 3d 7f 36 47 3e
       0.0786162 0.24539536 0.06239485 0.19454382
000010 3e 6d ae bc 82 0e 3e 3d e6 39 0a 3d bc 0d ca 3d
       -0.021292325 0.046400554 0.033746623 0.09865901
000020 f2 0d 50 3e 9e ba 54 bd 16 90 1b 3e a9 f5 9e 3c
       0.2031782 -0.051935785 0.15191683 0.01940425
000030 bd 98 2b 3e d9 e9 a0 bd 71 b7 0b bd 03 87 7a 3d
       0.16757484 -0.07857103 -0.03411049 0.061163913
000040 1c 54 2c 3e 5a e5 95 3d 0a 11 ef 3d e9 fc 02 3e
       0.1682896 0.07319136 0.11673172 0.1279179
000050 29 18 94 bd 78 45 f6 3d 6a 55 a0 bc 52 5f 4f 3e
       -0.07231171 0.12024969 -0.019571979 0.20251206
000060 6e ef cb 3d 8d a2 e5 3d 91 d5 52 3e ac 4e eb 3d
       0.09957777 0.11212645 0.20589282 0.11489615
000070 17 37 03 3e 4d 72 8b 3e d9 f6 85 3d 4a 85 3d 3e
       0.12813984 0.27235642 0.06541223 0.18507877
000080 58 f6 ca 3d 8a 0b 97 bd 93 89 f4 3d 0f ab 42 3d
       0.099102676 -0.07375248 0.11940303 0.047526415
000090 92 8b da 3d 90 fc 34 3d c8 22 6c 3e 5e 14 c6 3d
       0.10671152 0.044186175 0.23060143 0.096718535
0000a0 b7 96 af bd df d4 5b bc 37 2d 24 be 46 50 21 bd
       -0.085736685 -0.013417452 -0.16032873 -0.039383195
0000b0 d4 35 ae 38 19 90 b5 3d f3 cb 13 be 91 92 b0 bd
       8.306993e-05 0.08865375 -0.14433269 -0.08621705
0000c0 81 70 af 3d e8 e2 9e bc 13 fd 37 be 35 c1 2c be
       0.0856638 -0.019395307 -0.17967634 -0.16870578
0000d0 18 c7 0c be 13 3d 05 3e aa 79 a8 3d 0b 38 89 bd
       -0.13747823 0.13011579 0.082263306 -0.067001425
0000e0 2a 12 bd bc 69 e2 dd bd cf f0 e5 3c 4e 89 75 3d
       -0.02307995 -0.108342 0.028068928 0.059945397
0000f0 dd e4 3d 3e 65 96 44 3d 47 97 30 bd 04 e7 ff bd
       0.18544336 0.04799499 -0.04311302 -0.124952346
000100 46 cc 05 bd c5 2b 0d be 23 e8 03 3e ca 9f d8 3d
       -0.032665513 -0.13786228 0.12881522 0.10577352
000110 1b 1c c2 3d eb 72 d3 3d 72 36 54 bd d6 da fb 3c
       0.09478017 0.10324653 -0.051809736 0.030743998
000120 43 fa 22 be 51 50 f8 3d 31 2e 20 bd 6e 19 22 3d
       -0.1591578 0.12124694 -0.03910655 0.039575033
000130 c9 07 85 3c 5d c3 4e 3d df 51 15 be 48 d1 ba 3b
       0.016239064 0.05047928 -0.14582013 0.005701218
000140 84 c3 c0 3c 4d 91 29 3e 32 b0 37 3c 08 bc d1 bc
       0.02353073 0.16559334 0.011211442 -0.025602356
000150 25 81 00 be 86 9c cb 3d 35 1b 4d bd 87 45 ae 3d
       -0.12549265 0.09941964 -0.050074775 0.08509355
000160 16 d9 c9 bd 72 c8 fb 3d 71 1d f9 3d 39 5b 78 3c
       -0.09855859 0.12294091 0.12163819 0.015158468
000170 24 5b 4e bc 4a 8f 97 bd 0f 3a 58 bc 00 5a d9 3c
       -0.012594972 -0.07400377 -0.013197436 0.026532173
000180 46 9e e1 3d 4f 3f b6 3d 6b b8 19 3e f2 9c 15 be
       0.110165164 0.08898794 0.15011756 -0.14610651
000190 c0 87 1a be 08 f3 ce bd 15 99 84 3d 95 33 04 3d
       -0.15090847 -0.10104948 0.064745106 0.032275755
0001a0 fb 10 bb 3d 90 82 2e 3e 8f 96 3d bd e5 8d e4 3d
       0.09134098 0.17041993 -0.046286162 0.11159877
0001b0 88 e0 3f 3d b1 a1 d3 bd b2 9e 1c bd 3c 1b b3 3d
       0.04684499 -0.103335746 -0.03823728 0.08745429
0001c0 59 65 58 bd cb 5d d0 3c 5b 47 c0 bd b7 0a 83 bb
       -0.052831028 0.025435349 -0.0938861 -0.00399908
0001d0 f0 7c a2 3c cd 6d e0 3c 43 9b ff 3d f5 96 bb 3c
       0.019834965 0.027396107 0.12480786 0.02289913
0001e0 d8 0b 63 3d 35 88 24 bd 73 ee 86 3d 20 1f ae 3d
       0.055431217 -0.04016896 0.06588449 0.085020304
0001f0 e4 b7 57 3e e3 53 95 3d dd 8f 4c 3e 5a b0 e7 3d
       0.21066242 0.07291391 0.19976754 0.11312933
000200 de f7 64 3e de 16 0d 3d 99 3f 62 3e 7a 48 0d bd
       0.22360179 0.034445636 0.22094573 -0.034492947
000210 d7 a8 b7 3d ff 31 9b 3d 60 01 42 bd 7a d0 b4 3d
       0.089677505 0.075778954 -0.047364593 0.08828826
000220 fc 9a d3 bc a8 89 7b 3e c6 37 bb bd b6 36 01 3e
       -0.025830738 0.2456423 -0.09141497 0.12618527
000230 02 1c 83 bd cb 43 2c 3e 5b dd 2c bb 4e db 56 3e
       -0.064018264 0.16822736 -0.0026377055 0.20982096
000240 ce a4 3b 3e f9 14 9a 3c 41 02 50 3e 0e 45 f6 3d
       0.18324587 0.018808829 0.2031336 0.1202489
000250 1a 69 80 3e 26 8f d1 3d c4 a4 c7 bc 20 4f 90 3e
       0.25080186 0.102323815 -0.024370559 0.28185368
000260 b6 e4 5e 3e 87 ef 37 3e 60 9e eb bc cd 6c 1f 3e
       0.21766934 0.17962466 -0.028762043 0.15568848
000270 54 ef a4 3d 93 e3 18 bd 6d 03 7e 3c 7b e4 cf bc
       0.08053461 -0.037326407 0.015503746 -0.025377503

model.rnn.weight_ih_l1 f4 [160, 40]
000000 39 95 c8 3d 83 26 6f be db 0f 53 3a 67 59 ca 3d
       0.09794087 -0.23354535 0.0008051374 0.098803334
000010 e0 b8 8d 3d fd a4 b5 bd 57 e8 ef 3d 51 33 aa 3d
       0.06920028 -0.0886936 0.11714237 0.08310569
000020 d2 81 a0 ba 2d 9a e8 bd 68 d7 35 bc fc 17 99 bd
       -0.0012245721 -0.11357532 -0.01109872 -0.07475278
000030 36 1c 3a 3c 19 25 92 bd b9 b8 b8 3d 19 97 6e be
       0.011359265 -0.07135982 0.09019608 -0.23299827
000040 1a 61 f9 3d 17 a4 33 3d 17 b0 25 3d 2f 3d 50 3c
       0.12176724 0.04385766 0.040451135 0.0127099
000050 15 1b 06 3d 19 c9 43 be 0d f6 c4 bc 4f 24 93 bc
       0.03274067 -0.19119681 -0.024043107 -0.01796165
000060 87 13 a8 3d 34 f8 21 3e 75 46 5b be 11 76 ce bd
       0.082068495 0.15817338 -0.21413596 -0.10081113
000070 10 bd 6d be 5c a5 6b be b3 14 50 be fe 9a 1a 3d
       -0.23216653 -0.23012298 -0.20320396 0.03774547
000080 71 07 04 be c2 0f 1b bc ae 2d 6d 3d 3f 00 ff bd
       -0.12893464 -0.009464206 0.05790489 -0.12451219
000090 84 e1 34 bd 0f c4 31 3e a5 fe 25 3e 87 73 df bd
       -0.04416038 0.17359947 0.1621042 -0.10910707
0000a0 00 f9 3a be bb ee 4d 3d fc ce 88 3d 03 08 ff bd
       -0.18259048 0.0502765 0.06680104 -0.124527
0000b0 a1 98 06 3c 27 d5 03 bc 1e 5a 1d 3e b0 ae 53 3d
       0.0082151005 -0.008046425 0.15366408 0.051680267
0000c0 4b 67 fe bd a0 f9 bd 3c 63 14 17 bb 74 26 03 be
       -0.12422045 0.02319032 -0.0023052923 -0.12807637
0000d0 a5 e8 ed 3d 49 cf 00 3e 72 7c 3f be e7 6e b2 bd
       0.11616639 0.12579073 -0.18699816 -0.08712559
0000e0 93 87 df 3d 1b b8 f4 3b 66 c9 9e 3d 3b 18 00 3e
       0.109145306 0.007468236 0.077532575 0.12509243
0000f0 27 74 1a be 2f df d2 3d d8 27 e8 3d 19 99 06 3e
       -0.15083371 0.10296475 0.113357246 0.1314434
000100 d9 5b cb bd 1d 00 eb 3d 83 8f a0 bc 3c a6 08 3d
       -0.09929628 0.11474631 -0.019599682 0.03336166
000110 5b 67 a7 3d f5 2c c0 3d ba f4 f9 3d 6c 87 a2 bd
       0.0817401 0.09383575 0.12204881 -0.07935986
000120 e8 1a 9d bc a4 18 2b 3b d9 e0 05 be 2c b0 8e 3d
       -0.019177869 0.0026107216 -0.13074054 0.06967196
000130 3f e0 78 3d fe 59 b0 3d 86 d6 31 3d 17 f4 d8 bd
       0.060760733 0.08610915 0.043417476 -0.105934314
000140 40 ce 3a be 35 8e 57 be aa b0 9e 3b d6 81 c2 3d
       -0.1824274 -0.21050341 0.0048428373 0.094974205
000150 13 f8 ad 3c e1 92 c9 3d 9b ac 44 3d b1 f7 b2 bc
       0.021236455 0.09842468 0.048016172 -0.021846624
000160 b1 5d 13 bd 11 f0 a7 3c 52 78 87 3d b9 6a 58 be
       -0.035978023 0.020500215 0.06614746 -0.21134461
000170 40 23 f8 bd 9f c2 29 3e 5d 52 ac bd 62 12 ae 3d
       -0.121160984 0.16578148 -0.08414147 0.084996
000180 3a 9f 0a 3e 56 e6 e1 3d 40 b8 3d 3d ad fc 2f be
       0.13537303 0.11030261 0.046318293 -0.17186232
000190 fd b2 74 be 16 fa 32 be 0a c0 ed 3c 96 d4 ec bd
       -0.23896404 -0.17478213 0.029022235 -0.11563985
0001a0 40 a2 df 3d 3e 9e 54 bd a8 d0 d4 bd ad f5 ed bd
       0.109196186 -0.051908724 -0.103913605 -0.116191246
0001b0 85 5c 51 3c dc f4 f1 bd 7e ff d7 bd 12 22 19 3d
       0.012778406 -0.11814281 -0.10546778 0.037386008
0001c0 9b 71 31 bd f1 d2 49 3d 57 a7 0a 3e 4b 7f 05 3e
       -0.043321233 0.049273435 0.13540398 0.1303684
0001d0 39 93 a1 3d bf c6 00 3e 46 ae 9b bd 10 c3 32 bc
       0.078894086 0.12575816 -0.076015994 -0.010910764
0001e0 e5 f6 ce bd d9 e6 3b 3d c8 96 de 3c c7 25 45 3d
       -0.10105685 0.04587445 0.027171507 0.04813173
0001f0 ea 48 1f 3e d4 8b 94 bd 5b a6 ac bc aa 82 87 3d
       0.15555158 -0.072532326 -0.021075418 0.06616719
000200 ec f4 71 3d 40 d3 10 3d 99 9a 13 be f2 43 20 3d
       0.059071466 0.035357714 -0.14414443 0.039127298
000210 10 96 18 3e 41 ee e8 bc 25 b2 01 3d 6b 7d 21 bb
       0.14900994 -0.02843392 0.031664032 -0.0024641405
000220 1b 38 58 3d 64 e0 31 3e 49 05 09 be be 8e 14 be
       0.05278788 0.17370754 -0.13380922 -0.14507577
000230 f5 2b 41 be 95 d2 d5 bd fe 65 10 3e 2e dd 47 be
       -0.18864425 -0.10440556 0.14101407 -0.19517967
000240 c5 e1 85 bd d3 fa eb 3d eb 4c f4 bb 2a d6 3c be
       -0.06537203 0.1152245 -0.0074554584 -0.18441072
000250 35 37 72 3c 29 78 68 be a8 39 17 3c df 27 ef bd
       0.01478367 -0.22702087 0.009230055 -0.11677527
000260 8b 39 36 bd f9 1b 79 3c e2 c9 ba bc ef ef 08 be
       -0.04448847 0.015204423 -0.022801343 -0.13372777
000270 a3 db 00 be ef b8 ec bb 48 ce 34 bd a2 a0 0b bc
       -0.12583785 -0.0072241942 -0.044142038 -0.008522185
000280 be d6 07 3e 90 75 14 be ce 4a 03 3e 57 62 f3 bc
       0.13265511 -0.14497972 0.12821504 -0.029709978
000290 82 ca 5d 3d eb 39 e6 bd 8c 32 c0 3d 38 4d 31 bc
       0.054148205 -0.11241516 0.09384641 -0.010821633
0002a0 4c 37 91 bd 18 8b b1 bc d9 a4 9b 3d e1 88 3a be
       -0.07090625 -0.02167277 0.075998016 -0.18216278
0002b0 9c 0b 01 3c 2d 9a 65 3e f9 55 35 3d 6e 61 2a 3d
       0.007876303 0.22422095 0.044271443 0.041596822
0002c0 67 a3 4b bc 71 8d 1d bd 8a 1c 2b 3e 60 6c d8 3a
       -0.012429095 -0.038464967 0.16710106 0.001651179
0002d0 ae 4c 99 bd a2 1e 0f be 6d d0 cd 3c 14 43 20 3e
       -0.074853286 -0.13976529 0.0251238 0.15650588
0002e0 fa d1 4f 3e 0f 5b 36 3d a2 6f 5c be 17 9e cb 3d
       0.20294943 0.044520434 -0.2152696 0.099422626
0002f0 70 44 4a be 57 df 20 bd 69 08 10 be 43 c2 b2 bd
       -0.1975267 -0.039275493 -0.14065708 -0.08728459
000300 69 7e b9 bd e0 c4 85 3d 9b c9 ee bd a3 09 63 3c
       -0.09057314 0.065316916 -0.11659547 0.013857278
000310 bb 5c 40 3e 09 8e 4c 3d 0b f9 b6 3d 4b cd ca bd
       0.18785374 0.049940143 0.0893422 -0.09902438
000320 81 ac 18 3e 3e cc f2 3b 07 4d 5d bd b1 d3 01 be
       0.14909555 0.0074096015 -0.054028537 -0.1267841
000330 cf 84 8f 3e e5 ed 07 be c2 05 f1 3d c4 cd d1 3d
       0.28031012 -0.13274343 0.11768676 0.10244325
000340 c2 b4 59 3e 71 6b d8 3d d7 21 06 be 1e fd 00 be
       0.2126036 0.10567368 -0.13098846 -0.12596557
000350 d9 bf af 3d 8b f6 1c 3e ff da ca 3c 42 db 7b be
       0.08581514 0.15328424 0.024762629 -0.24595359
000360 74 71 71 3d b9 5b 64 3a 9d 0f f6 bd e3 75 1d be
       0.058946088 0.00087111775 -0.12014697 -0.15377001
000370 5c 3d 43 be d5 cb 05 3d f3 6f aa 3d fc 30 05 3e
       -0.19066375 0.032665092 0.08322134 0.13006967
000380 fa 28 3c 3e 8d 4f 61 3e bf bd 05 bc 79 7c b0 bd
       0.18375006 0.22003002 -0.008162915 -0.08617491
000390 10 50 b8 3d 1a 68 03 be b6 c7 a6 bc 74 40 72 bd
       0.08999646 -0.1283268 -0.020358901 -0.0591435
0003a0 6e 21 09 be 3c 86 50 3d c2 0a 45 be f4 e3 94 bd
       -0.13391659 0.050909266 -0.19242385 -0.07270041
0003b0 b7 81 1a 3e c7 ad 7e 3d 7b c5 ab 3b f9 fb 7a be
       0.15088545 0.062177446 0.0052420474 -0.24510182
0003c0 46 a1 bd 3e aa 0a 0e bd b3 a6 3c 3e 5c 5b 9a bd
       0.37037104 -0.03467814 0.18422966 -0.07536957
0003d0 a9 94 4d be fd bd 0e be 8d b5 1f 3e 24 c1 cf 3c
       -0.2007624 -0.13939662 0.155966 0.025360651
0003e0 f1 8a f3 3d 03 ac 17 be 47 35 c2 be 20 70 bd 3d
       0.11891735 -0.14811711 -0.37931272 0.09249902
0003f0 52 0a f8 bd 28 1e 9e 3d 2b b4 ee 3d 8f 31 97 bd
       -0.121113434 0.077205956 0.11655458 -0.073824994

model.rnn.weight_hh_l1 f4 [160, 40]
000000 c3 33 d7 bc c0 b0 8b bd b3 cf 2c be 30 4a 5f bd
       -0.0262698 -0.06820822 -0.16876106 -0.05451411
000010 06 e2 d6 bd cc 22 29 3e 7a f3 1f be 4b 75 47 3d
       -0.10492329 0.1651718 -0.15620223 0.048695844
000020 c8 d7 c7 bd e2 9f ba bc 5e de 0d be 4a 4c 8c bc
       -0.09757954 -0.022781316 -0.13854358 -0.017126221
000030 ae 4f 30 3d 9d df b7 3d 8c 07 b2 bc 23 c1 b5 bd
       0.04304474 0.08978198 -0.021732114 -0.088747285
000040 29 f2 d4 bd e7 97 13 bd dc 34 92 bd 1d 46 0f be
       -0.10397751 -0.036033537 -0.071389884 -0.1399159
000050 95 4b 3b bd 37 ee e3 bd 69 ba fb 3c bd dd db 3d
       -0.045726378 -0.1112942 0.030728536 0.107356526
000060 cd ef c7 bc ff b8 5c 3e ee d0 26 3e c8 b2 0a 3e
       -0.024406338 0.21554945 0.16290638 0.13544762
000070 b3 5f e5 bc c0 65 20 be df 2d 3d 3d f8 65 f4 3d
       -0.027999735 -0.15663815 0.046186324 0.119335115
000080 9c 41 30 bc 6e 67 0e bd d4 61 c6 3a a4 1f 5d bd
       -0.01075783 -0.034766607 0.0015135356 -0.053985253
000090 72 4d 2c 3e 88 ed d8 bb 21 b2 30 bd aa a5 8a 3d
       0.16826418 -0.006620113 -0.043138627 0.06769879
0000a0 71 05 46 3e 58 78 3b 3c 72 63 92 bd cd 2e 62 bd
       0.19338013 0.011442266 -0.07147874 -0.055220414
0000b0 c7 a7 8f bc 91 96 e2 bd dd 8c 65 be d0 ec 46 bb
       -0.017536057 -0.110638745 -0.22417016 -0.0030353554
0000c0 b3 28 25 be e2 71 52 be b0 28 d4 3d cb 40 03 bc
       -0.16128807 -0.20551255 0.10359323 -0.008011053
0000d0 6f fe 8d bd fd 6c 1f 3b 66 53 ab 3b 08 1a e8 bc
       -0.06933295 0.0024326437 0.0052284477 -0.028332725
0000e0 b6 2b b2 3d c8 11 28 bd 90 d0 44 3d 34 ec b7 3c
       0.086997434 -0.041032583 0.048050463 0.022451498
0000f0 5e c5 e8 3d 8b 33 b1 3d cf e3 6e 3d 8d 81 f7 bc
       0.1136577 0.08652409 0.058322724 -0.030213142
000100 d5 29 34 3e 01 18 1c be 3d 5f a1 bd 27 68 36 3d
       0.17594083 -0.15243532 -0.078794934 0.04453292
000110 f9 aa 3b 3d 01 8f b0 bd 8b c2 38 bc db b0 d6 3d
       0.04581735 -0.08621026 -0.011276851 0.10482951
000120 88 d4 8d bd 0f 78 7b bc 35 ae 22 be 69 5f f7 bc
       -0.06925303 -0.015348448 -0.15886767 -0.030196862
000130 22 3d f3 3d 0f 1c 08 be a0 71 c4 3d 73 f1 d9 3d
       0.118768945 -0.13291954 0.09591985 0.10641756
000140 57 3c e0 3d 3d 76 ae 3d 0f 80 2f 3c 55 83 e9 bd
       0.10949009 0.08518646 0.010711684 -0.11402003
000150 42 20 28 bd dc 24 15 be 10 86 3a be 33 4b 26 3e
       -0.04104639 -0.14564842 -0.18215203 0.16239624
000160 a9 0a 4d be 10 7e f2 3d 43 03 16 3e 15 87 ae 3d
       -0.20023598 0.11840451 0.14649682 0.085218586
000170 07 80 0b bd 3f f2 e2 3d ef 71 9c bd e1 0f 32 be
       -0.034057643 0.11081361 -0.076389186 -0.1738887
000180 2a 9e 4c bd 9c d2 e2 bd 3b 81 65 3e 29 27 35 3e
       -0.049955525 -0.11075327 0.22412579 0.1769072
000190 86 8b 2f bd 97 81 c2 bd d0 78 c2 3d 78 33 72 3d
       -0.04285767 -0.094973736 0.094956994 0.059131116
0001a0 db 56 12 3b 28 12 50 3e 13 86 9b 3d 17 44 75 bd
       0.0022329602 0.20319426 0.07593932 -0.05987939
0001b0 91 82 f4 3d c4 93 fd bd 7a fa 69 3e 83 9b 50 3e
       0.11938966 -0.123817 0.22849455 0.20371823
0001c0 6d f8 5f bc 6c 5a 18 3e f6 81 00 be 70 ad c6 bd
       -0.013670069 0.14878243 -0.12549576 -0.09701049
0001d0 f1 0a ff 3d 9e a2 6a be 10 79 10 be 4e f8 fc bc
       0.12453259 -0.22913596 -0.14108682 -0.03088012
0001e0 5d 83 7f 3d bf e9 8d 3d bb 11 a7 3b cc 0f 95 bd
       0.062381137 0.06929349 0.005098549 -0.07278404
0001f0 e8 80 d6 bd 8c fd a4 3a 6c b9 fc 3c f7 63 a2 bd
       -0.10473806 0.001258777 0.030850135 -0.07929223
000200 96 10 28 be 16 fd 3d bd 97 e6 21 3e 87 97 8f 3d
       -0.16412577 -0.04638394 0.1581062 0.070113234
000210 20 58 93 3c a4 e1 69 bd b9 6f 3f be 75 18 2c bd
       0.017986357 -0.057099953 -0.18694963 -0.04201551
000220 eb a7 1d 3e c3 ae 45 3d e3 98 45 3e 24 7b 40 3e
       0.15396087 0.04826237 0.19296603 0.18796974
000230 4a 55 03 be bf 17 67 bc b4 58 4b bd 19 db 3c bd
       -0.12825504 -0.014104783 -0.04964514 -0.046107385
000240 54 cb ea 3d b2 71 cc 3a a6 37 e8 3d 15 75 d9 3d
       0.11464563 0.0015597849 0.11338739 0.10618035
000250 bd b0 95 3d 75 fe 1c be e2 b3 20 3e 95 0f 1c 3e
       0.07309101 -0.15331443 0.1569362 0.15240319
000260 5f c1 6f bc b3 0f 00 be ee 42 fe 3d 7b c8 f7 3d
       -0.014633506 -0.12505989 0.124151096 0.120987855
000270 24 e6 75 bd f3 a2 c0 3d 0e ed b3 3d c9 b1 cb 3d
       -0.060033932 0.0940608 0.08785449 0.09946019
000280 4f de b6 bc 01 e0 ab bc 0a 18 d0 bd c2 5c 31 be
       -0.022322802 -0.020980837 -0.10160835 -0.1732054
000290 46 dc 0f 3d 3e d0 de 3c f3 ba 93 3c 63 07 f3 3d
       0.03512218 0.027198907 0.01803348 0.11866643
0002a0 f1 1a da bd 16 2a 1f bc 3f 0c 2f be ef f4 82 3e
       -0.1064967 -0.009714624 -0.17094515 0.25577495
0002b0 68 80 2e 3e 2b 04 f2 3d 25 19 cc bd c6 49 fc bd
       0.1704117 0.11817201 -0.099657334 -0.12318759
0002c0 3f 95 90 3d 05 ce c6 b8 89 5b cd 3d 58 d0 76 bd
       0.070597164 -9.47975e-05 0.100272246 -0.060257286
0002d0 aa 6c 5b be 2d de 92 3c a7 83 1a be 9b 14 8c bc
       -0.21428171 0.017928207 -0.15089284 -0.01709967
0002e0 bc 98 c3 3d 5f 8f 6b bd 2e d3 22 3e 01 54 52 bd
       0.09550616 -0.057509776 0.15900871 -0.051349644
0002f0 42 a4 9b 3d 66 31 cd bd 45 ce 2f 3e 73 86 60 3e
       0.07599689 -0.10019188 0.1716853 0.21926288
000300 af f0 fa 3d f0 e2 4f 3d 42 b4 49 be e4 f0 2b be
       0.12252938 0.050753534 -0.19697669 -0.16791111
000310 bd 83 8b bd 02 68 6c be 36 e7 41 bd ff fc 18 3e
       -0.068122365 -0.23086551 -0.04733964 0.1494026
000320 e4 f9 47 3e 2f 56 ca 3d 7d 8a 96 bd fc 6f 31 be
       0.1952892 0.098797195 -0.07350633 -0.17327875
000330 d5 6a 51 3e fe 4e 44 bd 98 b5 38 be 5a 81 7a bb
       0.2045091 -0.047926895 -0.18038023 -0.0038224072
000340 11 fa 81 be 01 8a 77 be 5e aa 0c 3e c2 13 f4 3c
       -0.25386098 -0.24173738 0.13736865 0.029794578
000350 55 9a af 3d b9 3c 15 bd b4 46 62 bd be 80 44 3d
       0.085743584 -0.036434863 -0.05524321 0.04797434
000360 c6 ce d4 bd 4a 06 7d 3d 18 c4 2b 3e 70 5f c7 3d
       -0.103910014 0.061773576 0.16774023 0.09735
000370 d3 15 35 3d 07 0c ec bd 96 95 35 3e 67 41 10 bc
       0.044210266 -0.115257315 0.17732844 -0.008804656
000380 99 23 2e 3e 36 7a 0d bc be 49 b6 bd 7f c3 28 3d
       0.17005767 -0.008635094 -0.08900784 0.041202065
000390 27 d8 de 3d 7d ef f9 bd 48 5b 65 3d 97 f8 ee 3d
       0.108810715 -0.12203882 0.055995256 0.116685085
0003a0 c0 9f b5 bd a4 5e 20 3e 03 51 39 be 46 7b 09 be
       -0.088683605 0.15661103 -0.1809731 -0.13425931
0003b0 59 5d 01 3e ba 33 9b bd 1e dd a0 bb d6 88 7c 3d
       0.12633266 -0.075782254 -0.0049091717 0.061653934
0003c0 4a 33 66 3d 68 68 94 bd 6a 91 c4 3d cd 43 32 be
       0.056201257 -0.072464764 0.09598048 -0.17408676
0003d0 3a fb 9d 3d 3b f4 a6 3d cb ca 42 3d 1c bc 93 bd
       0.07713933 0.08152052 0.04755668 -0.072136134
0003e0 f7 9f 38 be c1 b5 32 3c 5e 85 84 bd 03 32 84 3c
       -0.18029772 0.010907591 -0.0647075 0.016137129
0003f0 9e 40 b1 bd 3b 94 7c 3d 41 7c 11 3e 61 fa b6 bb
       -0.08654903 0.0616648 0.14207555 -0.0055840467

model.rnn.bias_ih_l1 f4 [160]
000000 81 48 9b 3d 3f ae b6 bd 2f c7 83 3e 91 82 9d 3d
       0.075821884 -0.089199536 0.25737903 0.07690919
000010 8e 0f 54 bc d7 ca 29 3e 0b c5 e7 3c 30 1f 84 3d
       -0.012943162 0.16581284 0.0282922 0.06451261
000020 eb d9 7d 3e 10 2b 70 3d 4e 43 7e bd c9 bc b5 bc
       0.2479016 0.058634818 -0.062075906 -0.022184746
000030 fb 55 a7 3d 54 18 04 bd 23 99 56 bd 0c 67 3d 3e
       0.08170696 -0.032249764 -0.052392136 0.1849634
000040 76 80 da 3d 70 0e 03 3e 2d bd 7f 3e 96 df c0 3b
       0.10669033 0.12798476 0.24974509 0.0058860285
000050 9f 55 33 3e 48 fc 62 3d 15 f3 95 3e 6d e4 01 3e
       0.1751313 0.055416375 0.2928702 0.12684794
000060 6b a1 3c 3d ea 7c 04 bd 49 a2 ca bd 47 f0 b1 3d
       0.046052378 -0.03234569 -0.09894235 0.086884074
000070 1a 2b 8c bd 55 9c 92 bd e7 f3 f1 3d a4 5a a0 3d
       -0.068441585 -0.07158724 0.11814099 0.07829788
000080 b3 49 13 3e 16 b7 67 3e 87 64 46 3e 2b e5 73 3d
       0.14383583 0.22628435 0.19374286 0.059544723
000090 ae 42 3f 3e 68 95 ba 3d 09 b9 4b 3d 62 d0 6a bd
       0.1867778 0.09110528 0.04973701 -0.057327636
0000a0 aa ee 40 3d 24 95 f2 bd 30 9c 11 3e dd 11 d6 bd
       0.047102608 -0.118448526 0.14219737 -0.10452626
0000b0 70 67 43 3d c9 a3 d0 bc a9 8f 9b 3d 29 66 fa bd
       0.047706068 -0.025468724 0.075957604 -0.12226517
0000c0 85 30 0a 3e fe d5 f4 3d 57 bb c6 3d 87 2d 37 3e
       0.13495071 0.11954878 0.09703701 0.17888461
0000d0 20 ff 40 bd d9 56 65 3c 60 dd ff 3c 11 bd 4c bd
       -0.047118306 0.013997757 0.03123349 -0.049984995
0000e0 7b b1 e7 3d 7e 8e 7b bd 95 03 96 3d 3c 89 4b bd
       0.113131486 -0.061415188 0.07324902 -0.049691424
0000f0 62 58 6e bd 51 24 34 3c 8f f0 9d bc ef 7b 13 be
       -0.058189757 0.010994987 -0.019279746 -0.14402746
000100 9f a6 e1 3d 85 85 97 bc 27 37 48 3d b6 6a 44 bd
       0.110181086 -0.018496284 0.048880722 -0.04795333
000110 7c 2a 0c 3e fd 60 25 3d bd 87 bf bd 31 48 46 3e
       0.13688082 0.0403757 -0.09352062 0.19363476
000120 6f 3b cd 3c 21 b9 f5 3c 32 42 79 bc 65 98 d8 bd
       0.025052754 0.029995503 -0.015213536 -0.10575942
000130 b2 e4 eb bd f2 e8 00 3e 3b 4e a7 bd 61 ba 72 bc
       -0.115182295 0.12588862 -0.08169218 -0.014814944
000140 7b 65 50 3e 88 8f 71 bd 8e cb 13 3e 1f 2a e3 bd
       0.20351212 -0.058974773 0.14433119 -0.11092018
000150 f9 fa 03 3e 08 c4 ed bd 4f 11 4b be 18 54 d8 ba
       0.12888707 -0.116096556 -0.19830821 -0.0016504554
000160 55 1a 02 be 32 fb d4 bd 94 0f ee b8 d4 ee 3e 3d
       -0.12705357 -0.10399474 -0.00011351626 0.046614483
000170 cf 00 16 3e 6f 00 83 3c e5 57 6d be 3b 28 3f be
       0.14648746 0.015991418 -0.2317806 -0.1866769
000180 67 e1 b7 bd 77 dd 3a 3e b7 de 2c 3d 98 2c 46 3e
       -0.08978539 0.18248545 0.042204585 0.19352949
000190 73 81 2e 3e eb 95 c0 bd 9b fa 1f 3c 5d f2 97 bd
       0.17041568 -0.094035946 0.009764339 -0.07419274
0001a0 d6 02 12 3e 1c 55 1b 3e e2 d7 cc 3d 59 c8 24 3d
       0.14258894 0.15169185 0.10002114 0.04023013
0001b0 d0 d7 46 3d ab 5d 89 3c 15 b4 04 3e 5e eb 18 3e
       0.04854566 0.016768297 0.12959321 0.14933535
0001c0 d8 0b 2a 3e 29 b2 45 3e ac 40 a9 bd 53 f7 b4 3c
       0.1660608 0.19306244 -0.08264288 0.02209059
0001d0 e5 4f 2e 3e 56 5b 38 be bc 9d 80 bd 03 20 8f 3d
       0.17022665 -0.18003592 -0.062800854 0.069885276
0001e0 f9 cd 09 bd 69 9b b6 bd 24 a1 21 3d 1a f9 0b 3e
       -0.033643696 -0.08916361 0.039460316 0.13669243
0001f0 6f bb 50 3d b0 36 8a bd 4a 02 8b 3d 3c 2a 36 3e
       0.05096 -0.06748712 0.06787546 0.17789549
000200 a4 be d4 bb 0f 61 b5 bd 05 24 23 3e 4a 28 36 3d
       -0.0064924527 -0.08856403 0.15931709 0.044472016
000210 6d 9a 20 3e 1b 5e 8f 3e 48 69 bf 3d 1a ee 5d 3e
       0.15683909 0.28001484 0.09346253 0.2167286
000220 1f f1 87 3d 4d 9b 5b bd 27 ae 0b 3d 51 0e 20 3e
       0.06637787 -0.053614903 0.03410163 0.15630461
000230 56 62 e4 3d d5 ba 60 3e 80 49 3e 3e 68 69 90 3c
       0.111515686 0.21946271 0.18582726 0.017628387
000240 a0 4b 31 bc 5e 9a 78 3e e5 85 0a 3d bb 93 66 3e
       -0.010821253 0.24277636 0.033819098 0.22517292
000250 03 d9 2b bd b0 f2 35 bd c7 15 f7 3d c7 5a 7d bc
       -0.041955005 -0.044420898 0.120647006 -0.015463538
000260 93 f3 a3 3d ff 84 29 3e ab 82 d7 bb 45 c5 83 3d
       0.080054425 0.1655464 -0.006576856 0.064341106
000270 d8 79 fc bc 77 50 72 bc d7 87 5f 3e e0 68 a4 3d
       -0.030819818 -0.014789692 0.21829163 0.08027816

model.rnn.bias_hh_l1 f4 [160]
000000 07 51 97 3d ca 99 c4 3d de bb 89 3d b4 a2 04 bc
       0.073885016 0.095996454 0.06725286 -0.008095432
000010 13 cc 9c 3d a9 e6 0a 3e e7 34 c6 3d 32 a5 93 bd
       0.076561116 0.13564552 0.09678059 -0.07209243
000020 03 fd 06 3e 52 87 f9 3d eb 61 c3 3d 27 ac 48 3d
       0.13182454 0.121840134 0.09540161 0.048992302
000030 a9 e7 27 3e 08 fd 45 3e a8 c7 fe 3d 29 71 1e bd
       0.16396965 0.19334805 0.12440425 -0.038682137
000040 0a 71 b5 3d 34 77 c2 3d c2 9c 6a 3e 21 9b 23 3e
       0.08859451 0.094953924 0.22911361 0.15977146
000050 b4 22 17 3e 88 a1 51 3e fa bb 84 3c 5e ff 9d 3d
       0.14759332 0.20471776 0.016202915 0.07714723
000060 ab b5 12 3e dd 0c a6 3d 4c d6 c3 3d 01 79 e6 3d
       0.14327113 0.08107922 0.09562358 0.112535484
000070 ad af 7e bd de d5 1b 3e 5c 88 54 3c 7a dc ab 3d
       -0.062179256 0.15218303 0.012971964 0.08391662
000080 bb 5d ac bd 9e 00 f7 3d ae cf d8 3d 31 0c 3a 3e
       -0.08416315 0.120606646 0.10586487 0.18168713
000090 8d 32 82 bd de c5 f3 3d b4 dc 5e 3e 66 d8 0d 3d
       -0.06357298 0.119029745 0.21763879 0.0346302
0000a0 ce ef f6 3d 72 45 7a bd 15 88 f4 3d e8 c8 13 3e
       0.12057458 -0.061101384 0.11940018 0.14432108
0000b0 b6 e3 e6 3d 55 b4 0f 3e 4c 62 9c 3d 21 42 cb 3c
       0.11273901 0.14033635 0.07635936 0.024811806
0000c0 83 9d e7 bc d6 32 80 bd 01 b1 be 3d 30 a1 b4 3d
       -0.02827335 -0.06259696 0.093111046 0.088198066
0000d0 30 7c c9 3d 3e 85 09 3e ce f9 51 bc a7 c2 97 3c
       0.0983814 0.13429734 -0.012815906 0.018525435
0000e0 f7 d0 c3 3d b1 f4 a1 3d 41 c4 84 bd 41 38 b7 3d
       0.09561341 0.07907999 -0.06482745 0.089462765
0000f0 df c5 0b 3d 51 b9 85 3d 8b 0e 7f bd ea 19 57 bd
       0.03412425 0.06529487 -0.06226973 -0.052514948
000100 48 a9 fb bc 08 b1 f6 bd 46 dc 81 bc 13 a1 12 bc
       -0.030720368 -0.12045485 -0.015852105 -0.008949536
000110 ef ac 17 3d 15 7a fa 3d 6b a3 8b 3d 55 a6 f9 3d
       0.037030157 0.122303165 0.06818279 0.121899284
000120 5a e5 ef bb 9c 81 ab 3b ed f7 d3 bd 8d 94 bc bd
       -0.007321042 0.0052339565 -0.103500225 -0.09208021
000130 cd 98 ad 3d 6c 2e 8c 3c 7d 94 0e bd 8d db ed 3c
       0.0847641 0.01711198 -0.03480958 0.029035354
000140 f5 d8 b7 3c 70 26 18 3b ce ba 99 bd 2e 4d ef 3b
       0.02244232 0.002321627 -0.07506333 0.0073029017
000150 7e 60 a5 3c 07 12 1c bd 0d 50 78 be 8c e7 73 3c
       0.020187613 -0.03810313 -0.24249287 0.014886748
000160 05 df 66 be 85 3e 39 bd e3 28 b1 3c 6c 2e cd 3d
       -0.22546013 -0.04522564 0.021625942 0.1001862
000170 13 dd 0c 3e ad 19 da bd c1 07 c0 bc 14 d6 bf 3d
       0.13756208 -0.106494285 -0.023441197 0.09367004
000180 74 7a b5 3d 24 4e a2 bd ea 2a 03 3e 52 58 0a 3e
       0.08861247 -0.079250604 0.12809339 0.13510254
000190 80 fc a3 bd 1f 87 5f 3d 20 93 95 3d 17 be b9 3b
       -0.08007145 0.05457222 0.073034525 0.0056684124
0001a0 9f f3 96 3d 19 8f 8f bb 8a aa 7a bd 57 5a 13 3e
       0.07370686 -0.0043810722 -0.061197795 0.1438993
0001b0 be d2 b2 bc db c7 09 3e 5b 53 60 3e 8c b7 e1 3d
       -0.021829005 0.13455145 0.21906798 0.11021337
0001c0 54 ed 62 bc 51 6f d0 3d 85 5f 11 bd 5a f2 6e 3c
       -0.013850529 0.10177482 -0.035491485 0.014584148
0001d0 a6 06 94 3d 6e 9b 0c be fd 84 d0 bd 07 16 69 bd
       0.072278306 -0.13731167 -0.101816155 -0.056905773
0001e0 64 3c 40 3e 9d 31 96 bc 5c 44 d8 3d 99 bf 67 3b
       0.18773037 -0.018334204 0.105599135 0.0035362004
0001f0 73 de b9 3d 32 76 0d bd 06 a1 79 3e d3 9d d9 3d
       0.09075632 -0.034536548 0.24377832 0.10625806
000200 62 a7 06 bd 0c 80 03 3e 91 bd b3 bd f2 40 e0 bd
       -0.032874472 0.12841815 -0.08776391 -0.10949887
000210 d3 8f ad bc be f9 87 3d bf c5 00 bd 3a 63 54 3d
       -0.021186745 0.066394314 -0.031438585 0.051852442
000220 d3 31 d9 3d da c5 83 3b 07 53 5c 3b 2a dc d2 3d
       0.10605206 0.0040213885 0.0033618824 0.10295899
000230 71 2c 33 3e 6b 9b 16 bd af bb 8e 3e 61 aa dc 3b
       0.17497422 -0.036769312 0.27877566 0.006734178
000240 cd ef 70 3e ed 66 1d 3e bb 8d 0b 3e e7 a4 1d bd
       0.23528977 0.15371294 0.13628285 -0.03848734
000250 eb 33 82 3d b9 5f f6 3d 60 87 b6 3d fa 6e 32 3d
       0.06357559 0.120299764 0.089125395 0.043562867
000260 f7 e4 9e 3d bb 10 d2 3d fb 8a 67 3e f0 fc 97 bd
       0.07758515 0.10257097 0.2261161 -0.07421291
000270 cd 2f 05 bd a9 11 53 3e 10 7b ad 3d 3a a3 55 bd
       -0.03251629 0.20612206 0.08470738 -0.052157618

exp_avg f4 [1, 40]
000000 e7 7e 17 bb ad da 05 ba 99 e0 17 ba 1a ec 1b ba
       -0.0023116411 -0.00051061326 -0.00057936605 -0.00059479626
000010 84 fc 2b bb 6c 26 cd 3a d4 a9 15 3b 6f da e4 3a
       -0.002624304 0.0015651709 0.002283682 0.0017460118
000020 b1 c2 4c 3b 95 ff 2f 38 d7 7a 93 ba 1c 69 f0 3a
       0.0031243975 4.196128e-05 -0.0011251819 0.0018341872
000030 3b b4 b4 ba 12 ce 2a 3b c8 01 c8 3a 7c 1c 83 3a
       -0.0013786623 0.002606277 0.001525932 0.0010002996
000040 c5 7f 58 3b a3 5a 7b ba 9f e3 b5 b9 11 4a 8a ba
       0.003303514 -0.0009588396 -0.000346926 -0.0010550638
000050 cb d3 06 bb 94 97 36 3b da 7c 43 bb 64 73 1c 3a
       -0.0020573016 0.0027861344 -0.0029829056 0.0005968122
000060 67 f6 4c 39 0b c4 cd ba b7 52 1a 3b ff 35 fe b9
       0.00019546748 -0.0015698684 0.0023547837 -0.00048486885
000070 87 2a 1f 3a cd 57 d4 3a d9 8b 4a ba 39 8d 3f bb
       0.0006071706 0.0016200483 -0.00077265274 -0.0029228462
000080 f7 14 4a ba a2 34 13 bb 52 69 92 3a d5 fe 19 bb
       -0.00077088125 -0.0022461792 0.0011170304 -0.002349784
000090 cc ad 0f bb b9 40 08 3b d1 b4 97 3a 58 90 24 3a
       -0.002192366 0.002079053 0.0011574273 0.00062776124
